main/assets/Breast_Cancer.tflite (tflite, 2352 bytes, 5 tensors)

sequential_14/dense_53/MatMul/ReadVariableOp/transpose f4 [12, 5]
0	0xbf04c5d9	-0.5186439
1	0x3ed1729c	0.40907753
2	0xbebd31e8	-0.36952138
3	0xbf0db2e1	-0.5535107
4	0x3e9939aa	0.29926807
5	0xbf062a78	-0.5240855
6	0xbf036c14	-0.5133679
7	0xbed661e2	-0.41871554
8	0xbeac07d7	-0.3359973
9	0xbdd683fc	-0.10474393
10	0x3eb3eb26	0.35140342
11	0xbe51eb06	-0.2049981
12	0xbf0eb606	-0.55746496
13	0xbdf65694	-0.12028232
14	0xbea4a557	-0.32157394
15	0xbf60cbdb	-0.8781106
16	0x3f0b351a	0.543779
17	0xbf556d43	-0.83369845
18	0x3e23146d	0.1592576
19	0x3e4d5329	0.20051254
20	0xbe84badc	-0.25923812
21	0x3ec231ec	0.37928712
22	0xbe5b313a	-0.21405497
23	0xbda12b70	-0.07869613
24	0xbef3a8d4	-0.47589743
25	0x3ebac012	0.36474663
26	0xbec02378	-0.3752706
27	0x3c5b1440	0.013371527
28	0xbe72ec56	-0.23722968
29	0x3e99cb32	0.30037838
30	0x3f0ea146	0.55714834
31	0xbe4100d2	-0.18847969
32	0x3cbce2a0	0.023057282
33	0xbf0e16d6	-0.55503595
34	0xbe79960a	-0.24373642
35	0xbe2cff84	-0.16894346
36	0xbe73d310	-0.23810983
37	0xbf0a7674	-0.54086995
38	0xbe8a4eb6	-0.27013177
39	0xbe154ae8	-0.14579356
40	0xbf07e2be	-0.53080356
41	0xbeba11d1	-0.36341718
42	0x3eacc678	0.3374517
43	0xbd6c25b0	-0.05765313
44	0xbd9ce250	-0.07660353
45	0xbedf9ca1	-0.43674186
46	0xbdd4442c	-0.10364565
47	0x3ee95870	0.45575285
48	0xbee547d2	-0.44781357
49	0xbcd1dd80	-0.025618315
50	0xbf12b844	-0.5731242
51	0xbf161efc	-0.5864103
52	0xbe0b714c	-0.13617438
53	0xbd3d8aa0	-0.04627478
54	0xbf13a68f	-0.57676023
55	0xbf0f206e	-0.5590886
56	0xbe610848	-0.21975815
57	0xbeea3a90	-0.45747805
58	0xbe6efa2a	-0.23337618
59	0x3e817c2c	0.25290048

sequential_14/dense_53/MatMul_bias f4 [12]
0	0x00000000	0.0
1	0x00000000	0.0
2	0x00000000	0.0
3	0xbf493869	-0.786017
4	0x00000000	0.0
5	0x00000000	0.0
6	0x00000000	0.0
7	0x00000000	0.0
8	0x00000000	0.0
9	0x00000000	0.0
10	0x00000000	0.0
11	0x00000000	0.0

sequential_14/dense_54/MatMul/ReadVariableOp/transpose f4 [8, 12]
0	0x3dddb0e8	0.10824758
1	0x3ee7ab48	0.45247865
2	0xbef0d2bf	-0.47035787
3	0xbbb05f51	-0.0053824564
4	0xbede0e84	-0.4337045
5	0x3ee955e8	0.45573354
6	0xbeec42ef	-0.46144816
7	0x3d9b74b0	0.07590616
8	0xbe867208	-0.26258874
9	0xbe98895a	-0.2979229
10	0xbe6a6460	-0.22889853
11	0xbee4468f	-0.44585082
12	0xbda4cd80	-0.080470085
13	0xbe28d106	-0.16485986
14	0x3dff2a90	0.1245929
15	0xbec54712	-0.38530785
16	0xbe81aede	-0.25328726
17	0xbe8b01a8	-0.271497
18	0xbe89fc23	-0.26950178
19	0xbf040fd5	-0.5158666
20	0xbe341d12	-0.17589214
21	0x3ccc43e0	0.02493471
22	0x3de14db8	0.11001152
23	0x3e532f9c	0.2062363
24	0xbeb3d3a3	-0.35122404
25	0xbe302dbc	-0.17204946
26	0x3d69a6c0	0.05704379
27	0xbf007aae	-0.50187194
28	0xbe8be2b8	-0.2732141
29	0x3d96db08	0.07365996
30	0xbf0b3fbf	-0.54394144
31	0xbe989b08	-0.2980578
32	0xbe87f6a4	-0.2655536
33	0x3ef8ba44	0.4857961
34	0x3ef1ab6c	0.47201097
35	0x3ec7167e	0.38884348
36	0x3e33a7c0	0.1754446
37	0xbea1c1cc	-0.31593168
38	0xbe8e6691	-0.27812627
39	0x3ecbb656	0.3978755
40	0x3dbef5e0	0.09324241
41	0x3ee294e6	0.44254225
42	0x3ef64660	0.48100567
43	0x3ed26f98	0.41100764
44	0x3e793d10	0.243397
45	0xbebba04f	-0.36645743
46	0x3e81d9da	0.2536152
47	0xbeac22eb	-0.3362039
48	0xbebc3b66	-0.36764067
49	0xbe82a309	-0.2551501
50	0x3db1db80	0.086844444
51	0xbc253556	-0.010083517
52	0xbef12002	-0.47094733
53	0x3ec7ab74	0.38997996
54	0xbefba92f	-0.49152514
55	0xbef65060	-0.48108196
56	0x3eb48174	0.35255015
57	0xbe431cfa	-0.19054022
58	0x3eeef2bc	0.46669567
59	0x3ed22452	0.41043335
60	0xbe9894f0	-0.2980113
61	0x3e8e17a0	0.277524
62	0x3ea2f436	0.31826943
63	0xbe79ca82	-0.24393657
64	0x3eaf3d60	0.34226513
65	0xbe7e5090	-0.2483542
66	0xbed219e0	-0.41035366
67	0xbef8a867	-0.4856598
68	0xbe981196	-0.29700917
69	0xbec5cd06	-0.38632983
70	0x3eae0ece	0.3399567
71	0xbea392b6	-0.3194787
72	0xbee8c6f8	-0.454643
73	0x3e90a416	0.28250188
74	0xbecade3c	-0.39622676
75	0xbedbd37c	-0.42934787
76	0xbebf8514	-0.37406218
77	0xbdfdb464	-0.123879224
78	0xbef6b182	-0.48182303
79	0xbeb37eac	-0.3505758
80	0xbdf3a730	-0.11897123
81	0x3eaf37fa	0.34222394
82	0x3e394700	0.1809349
83	0xbe603e6e	-0.21898815
84	0xbec8a753	-0.39190158
85	0xbeb89ce4	-0.36057198
86	0x3d7eead0	0.062235653
87	0xbeb3d9c0	-0.35127068
88	0xbdccff7c	-0.10009667
89	0x3e428b1c	0.18998379
90	0x3ea7943c	0.3273028
91	0xbee66824	-0.45001328
92	0xbe9480bd	-0.2900447
93	0x3f0adcce	0.5424317
94	0x3eb36614	0.35038817
95	0x3e07b10c	0.13251132

sequential_14/dense_54/MatMul_bias f4 [8]
0	0xbbc4c909	-0.0060054106
1	0x00000000	0.0
2	0x00000000	0.0
3	0xbf83965a	-1.0280259
4	0x3fe99235	1.8247744
5	0x00000000	0.0
6	0x00000000	0.0
7	0x00000000	0.0

sequential_14/dense_55/MatMul/ReadVariableOp/transpose f4 [1, 8]
0	0x3f2b9044	0.67017007
1	0x3efe9e14	0.4972998
2	0x3cfcdca0	0.030866921
3	0xbe9111f2	-0.28334004
4	0x3f5bc666	0.85849607
5	0xbf373424	-0.71563935
6	0xbe937fce	-0.28808445
7	0xbf17267a	-0.59043086
