main/assets/DiabetesModel.tflite (tflite, 6864 bytes, 9 tensors)

sequential_9/dense_32/MatMul/ReadVariableOp/transpose f4 [32, 8]
000000 a0 43 98 3e 6a 4a 1f be 0e 5e 84 3d 93 8a bc 3e
       0.29739094 -0.1555573 0.06463252 0.36824474
000010 60 e5 c6 3d 48 86 a9 be f3 28 42 3f ba d2 fe be
       0.097117186 -0.3311026 0.75843734 -0.49770147
000020 c8 4e 1d 3e 3c 4c fb bd d3 b6 54 be c3 d2 3e be
       0.15362084 -0.122704 -0.20772867 -0.18635087
000030 25 f7 1b be 28 8d 29 3e 00 f9 3f 3c 60 96 81 bd
       -0.15230997 0.16557753 0.011717081 -0.0632751
000040 6b 24 66 bf d4 1b fe bd a3 16 cd be 10 8f 01 3e
       -0.8989932 -0.124076515 -0.40056333 0.1265223
000050 91 be 64 be ed 26 b2 3e ed 62 e8 3e b1 54 43 3e
       -0.2233832 0.34795323 0.45387974 0.19075276
000060 24 a8 9d be ec 11 6c be c0 d5 4e 3e 64 73 5b bd
       -0.30792344 -0.23053712 0.20198727 -0.053576842
000070 19 f0 ae 3d 00 f8 ab 3d 0a 05 a6 3e c5 66 d8 be
       0.08541889 0.083969116 0.3242572 -0.42265907
000080 d2 e1 84 3d 72 31 14 3e 32 9e c4 bd ba 87 f4 3d
       0.06488384 0.14471987 -0.09600486 0.1193995
000090 f8 89 e2 3d eb 24 9a 3d e0 37 68 3f a8 7c 00 bf
       0.11061472 0.07526573 0.9071026 -0.5019021
0000a0 3a ab 34 bf 82 2a 6a 3e 66 0e a4 3e 59 7f a8 3d
       -0.7057377 0.22867778 0.32042235 0.08227415
0000b0 70 e4 6d be 0f b5 aa 3d 2c 50 2f be 0d 50 f4 be
       -0.23231673 0.083353154 -0.17120427 -0.47717324
0000c0 bc d5 13 3c 50 5c 49 3d c8 d8 35 3e 97 9a 8c 3e
       0.009023126 0.0491603 0.17758477 0.27461693
0000d0 57 cb ec 3c 52 91 db be 2a b8 f8 3e 62 12 37 be
       0.028905554 -0.42884308 0.48578006 -0.17878106
0000e0 21 c9 27 3e 87 a8 8a 3d 79 ad 82 bc 5f 72 5d bb
       0.16385318 0.06770425 -0.015951859 -0.0033790094
0000f0 84 ac 82 bd 1b 37 1e 3e dd 1e 2d be bb 40 a4 3e
       -0.06380561 0.15450709 -0.16906305 0.32080635
000100 7d c1 2f 3e 14 da 32 be 15 ee 9b 3e d3 44 e8 3e
       0.17163654 -0.17466003 0.3045508 0.4536501
000110 50 02 0a 3e 13 d2 a6 3e 90 89 53 bf b0 2e 56 3e
       0.13477445 0.3258215 -0.8263178 0.20916247
000120 ff 5e e1 bb 8e d5 92 3e 95 b3 84 be d0 85 21 3e
       -0.0068777795 0.28678554 -0.2591826 0.15773702
000130 f3 e3 10 3e b9 be 1a 3d fe 12 c7 be 8c fd 70 be
       0.14149456 0.037779544 -0.38881677 -0.2353422
000140 55 db 3f 3e ee 61 e0 3d 98 65 f6 be 24 40 c5 3e
       0.18736012 0.109561786 -0.48124385 0.38525498
000150 fe 41 a9 be 86 7c 32 be 35 be ad be 1b 0c 8f 3e
       -0.3305816 -0.17430314 -0.3393418 0.27938923
000160 57 af 4d 3f 3c 9e a6 3d 7d e0 5d bd b3 da c2 3d
       0.8034567 0.081356496 -0.054169167 0.0951437
000170 e6 d9 dd 3d 95 86 ab 3e b7 33 9e 3f 76 ef be 3e
       0.108325765 0.33501115 1.2359532 0.3729207
000180 c0 db 7a bf a6 20 9d be 5f 41 db 3e a1 c0 d5 be
       -0.9799156 -0.3068897 0.42823312 -0.41748527
000190 cd 72 38 3e 94 d2 b9 3e 8e 83 23 bf f1 fd 86 be
       0.18012543 0.3629347 -0.6387261 -0.26365617
0001a0 89 64 0a bf 88 65 4a 3e 50 7d 0f 3e 14 69 c6 3e
       -0.54059654 0.19765294 0.14012647 0.38752043
0001b0 21 33 3c 3e ea 74 c3 be e0 cc a1 be 4f 4d ef 3c
       0.18378879 -0.38175136 -0.3160162 0.029211668
0001c0 fe 6f b5 3e a4 40 ae bd bb 9c c3 be ce 47 a6 3e
       0.35437006 -0.08508423 -0.38205513 0.32476658
0001d0 83 95 6a be 50 16 d9 3d 28 54 25 be 60 67 8e be
       -0.22908597 0.10599959 -0.16145384 -0.27813244
0001e0 e1 42 af 3c 20 7b 82 bd 0a 11 e1 be c0 b2 28 3e
       0.021394195 -0.063711405 -0.43958312 0.16474438
0001f0 6d 10 6e 3e 3a e5 bd be 02 bf 20 be a5 0e 6f 3e
       0.23248453 -0.37088948 -0.15697864 0.2334543
000200 41 44 e1 be ff 4b 73 be f5 02 5e 3e a0 f2 14 bf
       -0.43997386 -0.23759459 0.21680816 -0.58182716
000210 e1 02 38 3d 71 74 d7 be 3d 95 92 3e 08 e8 ee 3e
       0.04492462 -0.42081025 0.28629485 0.466614
000220 43 56 5f bd 2a 4e 62 be 9d e5 aa 3e 67 53 96 3e
       -0.054525625 -0.2210013 0.33378306 0.29360506
000230 78 27 52 3e 31 1f 6b 3c b5 84 1d bf 21 28 b0 3e
       0.20522869 0.014350698 -0.6153062 0.34405616
000240 39 5e 22 3e 7f 84 3f 3d 10 75 e8 3d 00 49 20 3e
       0.15856256 0.046757217 0.11350453 0.15652847
000250 a0 6e 64 be 3b b2 ba 3e b4 cc ab be 7c c9 08 3e
       -0.22307825 0.36464104 -0.33554614 0.1335811
000260 14 53 43 3f 7a 2b c4 be 17 76 27 be e4 5b 6a 3e
       0.7629864 -0.3831442 -0.16353641 0.22886616
000270 a6 0a 6f 3e 34 17 ce be f7 90 2d bf e7 fd 66 3e
       0.23343906 -0.40252078 -0.67799324 0.22557794
000280 f9 26 3b bf 55 e4 10 bd ed 3d 71 3e 43 2c a5 bd
       -0.7310634 -0.035374004 0.23558779 -0.08065083
000290 6a 0f 7f 3e 0d a7 03 3f fa 21 2f 3e 22 db 9d be
       0.24908224 0.51426774 0.17102805 -0.30831248
0002a0 b6 98 ca 3e 5b e7 11 3e c1 48 89 be 8b 60 49 3e
       0.39569634 0.14248411 -0.2681332 0.19665734
0002b0 65 17 10 bf 3d 26 d8 3e 12 2f 08 3f c8 39 da bd
       -0.562857 0.42216673 0.53196824 -0.10655552
0002c0 07 75 f6 be ff f1 92 be 30 f9 df 3e f1 7f 62 be
       -0.4813616 -0.28700253 0.43744802 -0.22119118
0002d0 d2 9a a1 3e b7 da 11 3d 55 f4 df be 0e d7 33 3d
       0.3156343 0.035608973 -0.43741098 0.043906264
0002e0 0e b2 da 3e 94 86 7f be 72 c0 b0 3e 2b ab 22 be
       0.4271397 -0.24953681 0.34521824 -0.15885608
0002f0 4a ce 4e 3e d9 e0 8b be f0 d3 be bd 39 9c 53 3e
       0.2019588 -0.27319983 -0.093177676 0.20665063
000300 08 5f 65 3e f2 cf 4a be 9c bd 9a 3e 45 7c 0a 3e
       0.22399533 -0.19805887 0.30222785 0.13523968
000310 7f 9c ee bd 07 23 5d bd e8 15 49 bf 8d 26 2a 3e
       -0.11650943 -0.053988483 -0.7854905 0.16616268
000320 8a 24 32 bc dd e6 75 3e 4e ee f5 bd 01 4e 24 bd
       -0.010872969 0.24013849 -0.12008344 -0.040113453
000330 6f b8 93 3d 6f 4f 4a be 21 b2 15 be a7 c7 8b 3e
       0.07212912 -0.19756864 -0.14618732 0.2730076
000340 c2 c2 cc 3e cd 8e 91 bd d3 7d df 3e a6 c3 11 bf
       0.39992338 -0.07107315 0.43650684 -0.5693916
000350 a2 e0 1d 3e 5c 2b 3c be c9 db c8 3d 24 5e c3 be
       0.15417722 -0.18375915 0.09807546 -0.3815776
000360 1a 33 0d bf d8 8b 98 3e 96 64 2a be 1d 0f f8 3d
       -0.551561 0.29794192 -0.16639933 0.12112258
000370 18 04 a3 3c 8f 76 91 be 59 97 2a bf 0e fe 74 be
       0.019899413 -0.28410766 -0.6663719 -0.23925039
000380 65 34 a8 be ee f6 8d be aa a3 3e 3d 33 73 29 be
       -0.32852474 -0.27727455 0.0465428 -0.16547851
000390 3a e7 36 3e d6 07 51 3e 7f b0 53 3c 46 bf fc be
       0.17861643 0.20413145 0.012920498 -0.4936468
0003a0 6a 9e 55 3f 3c 0a 89 bd c5 77 fe bd 54 9f 06 be
       0.83444846 -0.06691405 -0.12425188 -0.13146716
0003b0 ac 39 2a be 55 1e a0 be 6a 3c 42 3c 2c ee 81 3e
       -0.16623563 -0.31273142 0.011855224 0.25377023
0003c0 af f4 46 3f 7f ad 38 3e 58 fb 9c be ed 73 81 be
       0.7771711 0.18034934 -0.3066051 -0.25283757
0003d0 80 2b 30 3e 03 5c 61 3d 0d 4d d0 3d 63 0f 5e be
       0.17204094 0.05501939 0.10170946 -0.21685557
0003e0 66 25 b4 be 7f 84 2e be a6 ca e2 3e f4 ac 55 3e
       -0.35184783 -0.17042731 0.44295233 0.20866758
0003f0 c0 e1 26 bf 89 ef df bd b5 78 ec be ab e6 02 3c
       -0.6518822 -0.109343596 -0.46185842 0.007989566

sequential_9/dense_32/MatMul_bias f4 [32]
000000 e4 f4 32 bd 00 00 00 00 2c d6 ee 3e 72 ae af 3e
       -0.043690577 0.0 0.46647775 0.3431278
000010 99 9a 35 bf 54 0c 20 be 48 26 14 bf 1f 82 78 3e
       -0.7093902 -0.15629703 -0.5787091 0.24268387
000020 6f 98 26 3e 89 1f 17 bf ee f9 14 3f 7b 32 42 bf
       0.16269086 -0.59032494 0.5819386 -0.7585828
000030 5e 80 44 3f 00 75 77 3e 00 00 00 00 e6 b9 71 3e
       0.7675837 0.24165726 0.0 0.23606071
000040 34 b2 08 3d 53 e9 c7 3d a2 d5 ae 3e 92 c2 b6 bd
       0.033373073 0.097613 0.34147364 -0.0892383
000050 26 6d 13 3e 72 46 57 bf e3 22 a7 3e d7 1d cc 3d
       0.14397106 -0.84091866 0.32643804 0.09966629
000060 ad 63 19 3f 2e 13 2b 3e 88 5a 0d 3f 0e cd 50 3f
       0.5991772 0.16706535 0.55216265 0.8156289
000070 9f ff 2f 3e 1e 79 1c be 32 f2 21 bf fc 27 1b 3f
       0.17187355 -0.15280578 -0.63260186 0.60607886

sequential_9/dense_33/MatMul/ReadVariableOp/transpose f4 [16, 32]
000000 03 16 9b 3e b3 6d 81 3e d9 5b bc 3e 5a 37 78 be
       0.3029023 0.25279006 0.36788824 -0.24239865
000010 12 85 bf 3c 54 a6 cd bd bb 46 18 3e ef 20 15 3e
       0.023378883 -0.1004149 0.14870732 0.14563344
000020 b5 8c b7 be ba 9c 4f be ee 1d 25 be a5 ef a1 3e
       -0.35849538 -0.2027463 -0.16124699 0.31628147
000030 9b e9 9a be 42 94 bc be 21 8b a1 be 03 bf e1 bd
       -0.30256352 -0.36831862 -0.3155146 -0.11022761
000040 24 e1 1f 3f fa c3 14 3e 07 4d 4a 3e 13 00 2d 3e
       0.6245291 0.14527884 0.19755946 0.1689456
000050 c1 ce ed be 68 06 7d be 0e fc c0 3e 83 dc 82 3e
       -0.46446803 -0.24709475 0.37692302 0.25558862
000060 c4 77 36 bd 01 8a 74 3e b2 96 00 be f0 9b cb bd
       -0.04454781 0.2388077 -0.12557486 -0.09941852
000070 d0 aa 9a bc ce 14 28 3d d2 29 54 bd 55 03 42 bf
       -0.018880278 0.041035466 -0.051797695 -0.75786334
000080 a9 6f 88 3e bc 76 ee bd b7 27 15 bd 25 6e ad 3e
       0.2664769 -0.116437405 -0.03641483 0.33873096
000090 76 ba ce be ef 80 a7 be d7 32 eb be cb d3 a1 bd
       -0.40376633 -0.32715556 -0.45937225 -0.079017244
0000a0 ca 27 1c 3e 44 00 5c bd 1a 4c a0 be b9 fe ab 3d
       0.15249553 -0.05371119 -0.3130806 0.08398194
0000b0 7b 4f d5 3e 21 2b 8e bd 34 9b d9 3d a2 7c cf 3e
       0.416622 -0.0694182 0.10625306 0.40524775
0000c0 30 d1 e4 3d 98 c3 68 bd 65 d4 79 3e 65 a1 92 be
       0.11172712 -0.056827158 0.24397428 -0.2863876
0000d0 6c ae b7 be 87 ce 3a bd 03 93 8b be 9b 2d aa 3e
       -0.3587526 -0.045607116 -0.272606 0.3323792
0000e0 48 11 ed 3c 57 b9 65 3e 84 13 76 3e 98 ec 29 be
       0.028938904 0.22433983 0.24030882 -0.1659416
0000f0 4d 0e a9 be e5 25 0b 3f 5c 2f 11 be a4 6d ae be
       -0.33018723 0.543547 -0.14178222 -0.34068024
000100 02 eb c0 bd 80 ed 54 bb f4 89 bc bc 11 83 97 bd
       -0.09419824 -0.0032490194 -0.023015 -0.07398046
000110 f2 23 95 be 7a 7d aa be c9 51 c1 3e 8d cf 99 3e
       -0.29128987 -0.33298856 0.3775771 0.3004116
000120 4a 50 2f be 98 e0 94 be cc fb 0e 3e 55 5e bb 3e
       -0.17120472 -0.290776 0.1396324 0.36595407
000130 50 d3 15 bd d6 a1 26 3e 25 1a 95 3e c5 e6 97 be
       -0.036578476 0.16272673 0.2912151 -0.2966825
000140 3e 52 bf 3e 64 8f ad 3e 07 e5 1f be 83 eb bd be
       0.37367433 0.3389846 -0.15614711 -0.37093744
000150 e7 1b a7 be 51 04 b6 3e f1 aa 06 be 0f 39 c6 3e
       -0.32638475 0.35550168 -0.13151146 0.38715407
000160 53 c6 bf 3d 54 62 2e 3e 50 20 c3 be 4e fb 64 be
       0.09363999 0.17029697 -0.3811059 -0.2236149
000170 20 84 48 bd 48 1b 94 3e 48 5b 0b bf 46 be 32 3e
       -0.04895413 0.28927064 -0.5443616 0.17455396
000180 85 cc dd 3e 93 e5 9c 3e b8 15 4b 3f 5c 35 eb 3e
       0.433201 0.306439 0.79330015 0.45939147
000190 92 3f 64 3d e5 ad d2 3e e1 8f 08 be a1 82 13 be
       0.055724688 0.41148296 -0.13336135 -0.144053
0001a0 4c 65 7f be 37 2f 84 be d0 3c e7 3c a1 47 f1 bc
       -0.24940985 -0.25817272 0.02822724 -0.0294531
0001b0 dc e0 8e 3e 85 cb dc bd df 2a 86 be a0 0b 09 be
       0.2790593 -0.10781006 -0.26204583 -0.13383341
0001c0 a3 c6 4d 3f fc c2 23 be a8 e3 88 3e 54 6c 8b be
       0.8038122 -0.1599235 0.26736188 -0.27231085
0001d0 13 3d 74 3e 23 b8 9f bd d9 0c 0b 3e 41 6e 6f 3d
       0.23851423 -0.07798793 0.1357912 0.058454756
0001e0 a5 65 a4 3e 5c 81 99 3e 69 6c a3 3e c4 b9 19 3e
       0.321088 0.29981506 0.31918648 0.1501227
0001f0 a7 3c c7 3d 04 96 b5 be 78 8a 3b bd c4 bc e1 bc
       0.097283654 -0.35466015 -0.04578635 -0.02755583
000200 06 09 3d 3e 20 b1 81 bc c6 43 52 be 93 0f ae 3e
       0.18460473 -0.01583153 -0.20533666 0.33996257
000210 f0 cd b4 be 06 f1 8b be 0c 34 94 be c6 91 0f be
       -0.35313368 -0.27332324 -0.2894596 -0.14020452
000220 e2 61 6d 3e b6 ea 2d 3e 9a b0 1b be 3c 94 96 bd
       0.2318187 0.16984066 -0.15204087 -0.07352492
000230 6c 3f 86 bd 48 73 31 3d 68 40 05 3d 78 91 12 bd
       -0.065550655 0.04332283 0.032532126 -0.03578326
000240 fc ee ce bd 68 68 c1 bd d0 57 de bc ba 4b 35 be
       -0.101041764 -0.09443742 -0.027141482 -0.17704669
000250 ce 56 f7 bd 62 a6 5b 3e c0 04 b8 bb 0a 72 25 be
       -0.120771036 0.21450189 -0.0056158006 -0.16156784
000260 c8 d8 d2 3d 70 c3 9e bd 6e a7 aa be b8 f0 03 3d
       0.10295254 -0.077521205 -0.33330864 0.03221199
000270 55 0d 9a 3e 46 4d 1d 3e 59 60 38 be 61 05 48 be
       0.30088297 0.15361509 -0.18005504 -0.19533302
000280 a3 46 a8 3e 2e 3d 88 be 6f 33 2e be c0 3a 1b 3e
       0.32866392 -0.26609176 -0.17011808 0.1515913
000290 34 43 5a be c1 05 84 be 3a ea ef bd bb 71 2f be
       -0.21314698 -0.2578564 -0.11714597 -0.17133228
0002a0 1c 45 39 be d4 6a 8b 3d 6d e3 8a 3e d0 8f 12 be
       -0.1809277 0.06807485 0.27126637 -0.14312673
0002b0 03 b2 86 3e 3f 73 2e be 80 80 5d 3b 20 95 94 3e
       0.26307687 -0.1703615 0.0033798516 0.29020023
0002c0 93 d4 ac be c5 aa 0a 3e ee 3c 62 3e bf 93 81 be
       -0.3375593 0.13541706 0.22093555 -0.25308034
0002d0 f1 67 bc be fc 37 7e be 20 7a 9d bc 44 d3 4f 3e
       -0.3679805 -0.24826044 -0.019223273 0.20295435
0002e0 a0 80 0d 3d a9 64 82 3b 90 40 95 3e d4 ad a1 bd
       0.034546494 0.003979285 0.2915082 -0.07894483
0002f0 d0 bd 42 3c fc 41 e2 3d 46 91 03 3e 10 c3 4c bd
       0.011886075 0.11047742 0.12848386 -0.049990714
000300 3c ed 4e be 28 c8 95 be d6 7b 4e 3e c4 01 90 bd
       -0.20207685 -0.2925427 0.20164427 -0.07031587
000310 b0 88 cd bc b8 a5 45 bd ec 9d 10 be 54 7f bb bd
       -0.025089592 -0.048253745 -0.14122742 -0.09155145
000320 3b bd 54 be ba 2d 3d 3e 28 a3 47 be 80 b7 0e bd
       -0.2077531 0.18474475 -0.19495833 -0.034842968
000330 c7 6e 80 3e 60 3e b0 bc b5 3c 01 be 7a 11 39 3e
       0.25084516 -0.021514118 -0.12620814 0.18073073
000340 b9 44 a4 be ba 29 af be f4 78 ae be 01 27 9b be
       -0.3208368 -0.34211522 -0.34076655 -0.30303195
000350 b0 97 ab bd 32 e8 31 3e fe a6 a5 be 95 b6 b4 be
       -0.083785415 0.17373732 -0.32353967 -0.3529555
000360 bd 39 a4 3e 18 70 b1 bd b9 20 5b be 40 6b 31 3d
       0.320753 -0.08663958 -0.21399201 0.043315172
000370 50 da 63 bd 80 56 96 3d e4 ab ed 3d d5 a2 b1 3e
       -0.05562812 0.07340717 0.11605051 0.34694543
000380 b8 1c e1 3e f5 d2 29 be df db 39 bd 42 e6 92 3e
       0.43967223 -0.1658438 -0.0453757 0.28691298
000390 3f 41 e0 be 34 f8 b8 3e db 59 bb be ad e8 1f 3d
       -0.4379978 0.36126864 -0.36591992 0.039040256
0003a0 a1 37 90 3e ad dd 0b 3e a5 ff e0 3e 55 dd 92 be
       0.2816744 0.13658781 0.4394504 -0.28684488
0003b0 f5 32 d3 be e0 08 91 bd c9 f7 81 3e 41 13 94 3e
       -0.41249815 -0.07081771 0.25384358 0.2892094
0003c0 70 58 d6 be c4 a2 a4 3e 13 fa d2 bd aa ef d6 3e
       -0.41864347 0.3215543 -0.10301604 0.41979724
0003d0 0d c5 39 be b4 70 59 be fd 2b 29 bc a2 34 ea bd
       -0.18141575 -0.21234399 -0.010325429 -0.1143582
0003e0 5e 4e fd 3d ac b8 b8 bc bb ae d0 3e cb 80 fb be
       0.12368463 -0.022548996 0.4075831 -0.491217
0003f0 4e 83 76 3e 4b d7 d5 3e 7d 74 cf bd 0a 35 78 be
       0.24073526 0.41765818 -0.1012964 -0.24238983

sequential_9/dense_33/MatMul_bias f4 [16]
000000 04 70 0b 3e e0 05 9d 3d 22 97 9b be 63 8e 01 3f
       0.1361695 0.07667136 -0.30388743 0.5060789
000010 00 00 00 00 68 af 9d bc 00 00 00 00 05 b1 ce 3e
       0.0 -0.01924868 0.0 0.4036943
000020 51 27 68 bf 8d 4b 4e be e7 b0 51 bf 95 df 6f 3d
       -0.9068499 -0.20146008 -0.81910557 0.058562834
000030 e1 dc 35 bf 7d 3c 38 bd d9 0c 0e 3d 47 26 0f 3e
       -0.7104016 -0.04497956 0.03468022 0.13979445

sequential_9/dense_34/MatMul/ReadVariableOp/transpose f4 [12, 16]
000000 90 cc fa 3d 4b 3f 3d 3f 19 5e 25 3e a6 d6 71 be
       0.122460485 0.739247 0.16149177 -0.23617038
000010 14 99 78 be a1 1b d2 3e 1f f7 ba be b4 02 f3 3d
       -0.24277145 0.41036704 -0.36516663 0.1186575
000020 3f 31 ce be 50 71 4a be bc 99 42 3e 28 55 5a 3e
       -0.40271947 -0.19769788 0.19003958 0.21321547
000030 a4 e0 7e 3d 37 37 fe bd 58 ba 19 be a5 d3 34 bb
       0.062225953 -0.12412875 -0.15012491 -0.002759197
000040 0e 6c 9f be f9 82 bb 3e cf 75 cc 3d 1c c3 b7 3e
       -0.31137127 0.36623362 0.09983408 0.35891044
000050 f0 e8 f4 bd 59 d1 d0 be 98 e1 e0 3e 5f cf b3 bc
       -0.11958492 -0.4078472 0.43922114 -0.021949468
000060 cc 59 b5 be 8d c9 35 3e 7e d3 bb 3b 17 ef ac 3e
       -0.35420072 0.17752667 0.005731999 0.3377616
000070 f7 f1 5b bd 8b 49 9c be e5 ad 87 3e ca fb a4 bc
       -0.053697553 -0.3052486 0.26499858 -0.020139594
000080 4b dd 72 3e 4b c3 41 3e db 4d ec be 27 dc 71 be
       0.23717229 0.18922155 -0.4615315 -0.23619138
000090 3e 07 9a 3e 6c 30 bf 3e 36 4b 46 be 6b a7 fe be
       0.3008365 0.3734163 -0.19364628 -0.49737105
0000a0 0b dc 51 3c ce 20 f0 be 72 4c e4 be fe 0e 17 be
       0.01280881 -0.46900028 -0.44589573 -0.14751813
0000b0 46 6c 69 3e 78 e1 7d 3e 78 88 3e be ae 6b b5 3d
       0.2279521 0.24793041 -0.18606746 0.08858429
0000c0 be b1 ba be db e9 c8 be 2e ee 41 3e 2f 75 63 3d
       -0.36463732 -0.39240918 0.18938515 0.055531677
0000d0 aa c2 87 3e f6 3d a8 3e c0 8e a0 3e 2d 2e 65 3e
       0.26515704 0.32859772 0.3135891 0.22380896
0000e0 9e 0a 62 bd 36 38 a1 3c 9b a5 2f bf cf cc e8 3d
       -0.055185907 0.019680124 -0.6861207 0.11367189
0000f0 04 07 ff be 78 92 ac 3e 67 42 f9 3c b7 40 b4 be
       -0.4981004 0.33705497 0.03042717 -0.35205624
000100 f8 e0 d2 be 4a a9 2b be 4e 16 97 3e 15 bb f5 3e
       -0.41187263 -0.16763797 0.29509205 0.47994295
000110 5e 6d 62 be eb 58 c0 be 00 4c b0 bd 12 58 2b 3d
       -0.22112033 -0.3756784 -0.08608246 0.041832037
000120 92 08 c2 bd d8 73 d6 3e 28 a8 99 3e 04 6e 05 bd
       -0.09474291 0.41885257 0.30011106 -0.032575622
000130 21 5d 82 3d 23 9f 44 3d 00 9a d9 be cf da 96 be
       0.06365419 0.048003327 -0.42500305 -0.29463813
000140 3d a7 5e bf 62 45 92 3e 37 06 97 3e 6d b6 b5 be
       -0.86973935 0.2856856 0.2949693 -0.35490742
000150 80 95 03 3e f0 5c 9e 3e cc be a5 bd 5e 48 c8 be
       0.12849998 0.3093028 -0.08093032 -0.39117712
000160 5d d6 80 be 34 9c 98 bd 1a 6d 89 bf 9d c8 ae be
       -0.25163546 -0.074516684 -1.073642 -0.3413743
000170 05 04 71 3e 80 5b 42 3b 0c 30 d4 3e 34 b6 87 3d
       0.2353669 0.002965659 0.41442907 0.06626549
000180 7e ff d0 be 80 ac 65 bc 1c d2 d3 be 1c 24 af be
       -0.40819925 -0.014018178 -0.41371238 -0.34207237
000190 18 81 dd bd 86 04 a9 be b8 6f e4 3e 48 8a d9 3d
       -0.10815638 -0.33011264 0.44616485 0.10622078
0001a0 7a 86 97 be 42 d3 e8 be fa 73 cb be a8 aa d0 bd
       -0.29594785 -0.45473677 -0.3973692 -0.101888
0001b0 32 4d a8 be 26 e8 e5 be 48 a3 6e bd 90 70 5a bd
       -0.32871395 -0.44903678 -0.058261186 -0.053330004
0001c0 d1 a2 d7 3d 5a 9d 54 bd b0 89 b5 3e 7c d4 f6 3c
       0.10529102 -0.051907875 0.3545661 0.030130617
0001d0 ec d3 c0 3e 40 14 a5 be 1c b5 9c bd 39 ea 61 be
       0.37661684 -0.32242012 -0.07651731 -0.22062005
0001e0 7f a8 5b 3e 4b d0 d9 3d d6 94 c7 bd db e8 13 3e
       0.21450995 0.10635432 -0.09745185 0.14444296
0001f0 00 27 be 3d 56 b0 bb be 1f 01 c2 be 32 19 cc bd
       0.092847824 -0.3665797 -0.3789148 -0.09965743
000200 1a fd 0e 3e 6f da 65 3e fe c0 9b 3e bf 77 8e bd
       0.13963738 0.22446607 0.3042068 -0.069564335
000210 a4 ea 4d 3e 4d 69 a4 be 08 09 ab 3d 9c d9 43 3e
       0.2010904 -0.32111588 0.08351332 0.1912598
000220 20 d6 74 3e 32 9d 5e 3e 4a 8b 44 3d 8e 01 e9 bd
       0.23909807 0.21739653 0.0479844 -0.1137725
000230 35 d2 d7 be 8f 65 93 be 65 55 8b bd a8 83 ea be
       -0.42152563 -0.2878842 -0.06803397 -0.4580357
000240 c5 aa df 3d 55 18 10 3e 72 1f f5 be f8 d6 68 3e
       0.109212436 0.14071782 -0.47875553 0.22738254
000250 a0 b6 86 3e 30 24 e0 3e 36 4c db 3e 9e 86 21 bf
       0.26311207 0.4377761 0.42831582 -0.63096035
000260 58 0b a7 be 3a 53 a4 3e 9b 5a aa 3e ff b2 81 be
       -0.32625842 0.32094747 0.3327225 -0.25331876
000270 6a c2 71 bd f9 ad d2 be c7 49 09 be 2c f8 a4 be
       -0.0590233 -0.41148356 -0.1340705 -0.3222059
000280 cd f1 ac 3e 09 00 37 be 18 ec 5f be 8c e8 b1 be
       0.3377823 -0.17871107 -0.21867406 -0.34747732
000290 bc 05 b0 be 1f 55 1e be 50 86 72 3e 5f 0c 0c be
       -0.34379375 -0.15462159 0.23684049 -0.13676594
0002a0 89 de 5f 3e a3 26 b9 bd dd 49 c1 3e 33 93 17 3e
       0.21862234 -0.090405725 0.37751666 0.14802246
0002b0 90 a8 3a 3d 8d ac 85 be 90 2c da 3e 13 a5 f4 3d
       0.04557091 -0.26108208 0.42612123 0.11945548
0002c0 7c d8 19 be ab 8a 41 be bd b0 17 3e 97 34 32 bf
       -0.15023988 -0.18900554 0.14813514 -0.69611496
0002d0 28 c6 c3 be 8c cf 94 3e 7f 1c 93 be 7e 9a af 3e
       -0.3823712 0.29064596 -0.28732678 0.34297556
0002e0 e8 ae 08 bf 3a d5 ac bc bb 12 82 3e ab 9d 12 3e
       -0.53391886 -0.021097768 0.25404915 0.14317958
0002f0 aa 06 84 be 50 26 4b be b8 85 81 be b2 be 00 3e
       -0.25786334 -0.19838834 -0.25297332 0.12572744

sequential_9/dense_34/MatMul_bias f4 [12]
000000 70 8a a4 bd 34 63 82 3f b8 27 5b be e4 49 91 bc
       -0.08034217 1.0186524 -0.2140187 -0.01773543
000010 25 14 5d bf e7 83 90 be 00 00 00 00 97 e1 92 bf
       -0.86358863 -0.28225634 0.0 -1.1475095
000020 4e 5e 01 3f a1 a8 49 3f c5 56 5c bf 34 6e 5a ba
       0.5053452 0.7877293 -0.860699 -0.00083324616

sequential_9/dense_35/MatMul/ReadVariableOp/transpose f4 [8, 12]
000000 85 1f d0 3d 50 8a c1 3d 5f e8 8a 3e 7d 9d 1a 3f
       0.10162262 0.09450209 0.2713041 0.6039656
000010 7f a7 db 3d 6a 58 e0 3e a0 86 ea 3d c3 c1 12 3e
       0.10725307 0.43817455 0.11451459 0.14331727
000020 1b 80 81 bf 99 a3 79 3e 02 0c b0 3e b0 c1 84 3e
       -1.011722 0.24378814 0.3438416 0.25929022
000030 32 d0 0f 3d 8d e8 99 bd cb 5f 92 3d 67 7f 5f bd
       0.03511066 -0.07515059 0.07147177 -0.05456486
000040 8a 88 00 3f 77 10 9c be 40 7b 09 3f a0 0f 19 3f
       0.5020834 -0.30481312 0.5370369 0.59789467
000050 38 55 c4 be 17 96 4b be 4b 9b b6 3d 3f 8d 10 3f
       -0.38346267 -0.19881473 0.089163385 0.56465524
000060 3d 17 ce be 06 28 e9 bd 55 d7 8a 3e 92 c6 e7 3d
       -0.40252104 -0.11384587 0.2711741 0.11317171
000070 67 8d 90 3e d5 de 70 be 9c b4 41 3e 8c 76 fa bd
       0.2823288 -0.23522504 0.18916553 -0.12229642
000080 27 99 af be 41 df 13 be 15 db a4 bd 06 74 98 3e
       -0.34296533 -0.14440633 -0.08049599 0.2977602
000090 0f b4 f8 3d 1b 67 36 3e 51 27 d2 be d4 ee b8 be
       0.121437185 0.17812769 -0.4104562 -0.3611971
0000a0 d2 e3 95 be 7e be 17 3f dd 84 e4 be ee 08 3b bb
       -0.29275376 0.59275043 -0.44632617 -0.0028539258
0000b0 c6 73 bb bd fc 8d 85 3e 30 bf 6f 3c da c8 d7 3d
       -0.091529414 0.26084888 0.014632985 0.10536356
0000c0 13 9b 04 3e 75 76 54 3e b3 8d 19 bf bd ed 0e bf
       0.12949781 0.20748313 -0.5998184 -0.5583151
0000d0 f6 93 2f 3d 68 51 3d be 44 b2 cb bd d4 24 89 3d
       0.042865716 -0.18488085 -0.09946111 0.066964775
0000e0 1e e8 f6 3e 78 3c d7 3e 62 b1 3d be 27 cb c3 3e
       0.48223966 0.42038321 -0.18524697 0.3824093
0000f0 ea d0 04 3f 27 b8 18 bf be ac 03 be 20 f9 60 bd
       0.5188128 -0.59655994 -0.12858865 -0.054925084
000100 1c a5 a6 3d 86 d5 0b 3c 80 96 d0 3e f6 3d 4d 3e
       0.08136961 0.008534795 0.40739822 0.20043167
000110 d6 0c 8a be e0 35 3a bf 1a fd 11 bf 19 16 00 3f
       -0.26962918 -0.72738457 -0.5702683 0.5003372
000120 e4 4c 10 bc d3 b8 e2 3e 66 00 83 3e 12 71 11 bf
       -0.008807395 0.44281635 0.2558624 -0.56813157
000130 a8 5c 55 be c7 d3 a8 be 32 ff be 3e e5 99 b8 3e
       -0.20836127 -0.32974073 0.37304074 0.36054912
000140 fa 85 35 be 14 16 6c 3e 12 5e 1a 3a 1c da 56 bd
       -0.17726889 0.23055297 0.00058886514 -0.0524541
000150 0b 37 d8 3e e4 34 93 be b6 8c 99 bd 67 e3 12 3f
       0.42229494 -0.2875129 -0.074975416 0.5737824
000160 2a cf be be 00 bc 52 bc 57 75 92 be 36 38 0a be
       -0.3726743 -0.0128622055 -0.28605148 -0.13498005
000170 6d 20 ea be fc b6 a4 3e df f8 a5 be f1 42 df 3e
       -0.45727864 0.32170856 -0.32416436 0.4360576

sequential_9/dense_35/MatMul_bias f4 [8]
000000 37 20 ab bf 85 c0 9f bf 1e ea 48 bf 98 2d 68 bf
       -1.3369206 -1.2480627 -0.78482234 -0.9069457
000010 0f 1f a4 3f 5f 3e b0 bc e9 79 a5 3f db 79 8a 3d
       1.2821978 -0.021514116 1.2927829 0.06761523

sequential_9/dense_36/MatMul/ReadVariableOp/transpose f4 [1, 8]
000000 6b c9 69 3e 43 6f 14 3f 94 3f 04 3f 6e bb 0f 3f
       0.22830741 0.5798227 0.5165951 0.5614537
000010 61 76 04 bf 5e 10 7e bf 7a 0b 76 be 1c 12 98 3e
       -0.5174313 -0.99243724 -0.24027815 0.29701316
