main/assets/Heart_Predict.tflite (tflite, 2744 bytes, 5 tensors)

sequential_71/dense_277/MatMul/ReadVariableOp/transpose f4 [12, 13]
0.4606891 0.08377841 0.26566347 -0.40638912 -0.17712253 0.11343071 0.37924114 -0.42279905
0.4579564 0.028712422 -0.005216658 0.11593327 -0.44428304 -0.17864196 -0.65165716 0.82052016
-0.03724433 0.3289046 -0.054826885 0.76886356 0.31087735 -0.90009403 -0.49092224 0.046992622
-0.43404275 -0.3767112 0.4745445 -0.28109437 -0.29944855 0.0030831993 -0.31845623 -0.34572163
-0.16573328 0.020818919 0.25532964 0.4314582 -0.23359242 -0.13827598 -0.18206495 0.3220283
-0.843459 0.1601244 -0.043361075 -0.05330047 0.77203226 -0.12064488 -0.01430341 -1.019962
-0.39498988 0.2712426 0.043070648 -0.350228 -0.36756644 -0.6778172 -0.16814077 0.3385641
0.14402308 -0.10380599 -0.16990703 -0.11787138 0.40220743 -0.3859765 0.2786025 -0.04556916
-0.10081966 0.091855735 -1.1106056 0.418516 0.39867288 0.17990938 -0.3928411 -0.13805278
0.11257257 -0.75213575 -0.796967 0.56151825 -0.5756088 -0.69782454 0.33049387 0.75092036
-0.88482577 0.47096768 -0.1172097 -0.24249877 -0.38720652 0.14740236 0.38025528 0.23715512
-0.011669335 0.91118425 0.27366596 -0.16030721 0.33205757 -0.89653635 0.08951829 0.2995559
0.14240195 -0.13289201 -0.056194782 0.68129396 0.05385227 0.15316679 0.24019837 0.36441916
-0.22219454 0.3746756 -0.49259046 0.34522614 0.26525235 -0.345722 -0.086311795 0.44340998
0.82110196 0.49765873 -0.329513 0.6650062 0.16693735 0.13945097 1.141686 -0.2919676
0.06660958 0.37751397 -0.15594445 -0.66761947 0.33605802 0.8927619 0.8513441 -0.65758395
0.7259432 0.26181588 -0.17439267 0.2032977 0.29337057 -0.20021999 -0.26410556 -0.47196856
-0.16542575 0.13857546 0.40502617 -0.1698803 -0.4303695 -0.098320216 0.18908504 0.3960741
-0.1284247 -0.094370075 0.21796802 -0.18890269 -0.2822779 0.21894409 0.45717156 -0.4840209
-0.30171806 0.29661593 -0.34960076 -0.13584277
00000000: 71df eb3e 0494 ab3d 0b05 883e 3c12 d0be
00000010: 9c5f 35be 5c4e e83d e52b c23e 1e79 d8be
00000020: 4379 ea3e 5036 eb3c 80f0 aabb 6c6e ed3d
00000030: 1179 e3be ebed 36be 01d3 26bf 9c0d 523f
00000040: 838d 18bd 2f66 a83e 2892 60bd 3ed4 443f
00000050: 512b 9f3e 906c 66bf 295a fbbe 567b 403d
00000060: da3a debe 4ae0 c0be 7ff7 f23e 9aeb 8fbe
00000070: 5251 99be 800f 4a3b b20c a3be 6d02 b1be
00000080: fcb5 29be 708c aa3c 91ba 823e 17e8 dc3e
00000090: da32 6fbe 3898 0dbe 3c6f 3abe e5e0 a43e
000000a0: eeec 57bf a7f7 233e 629b 31bd 9851 5abd
000000b0: e8a3 453f aa14 f7bd da58 6abc 1d8e 82bf
000000c0: 1d3c cabe 4fe0 8a3e d96a 303d 1651 b3be
000000d0: ab31 bcbe 6e85 2dbf 182d 2cbe 4658 ad3e
000000e0: c97a 133e 3c98 d4bd 1cfc 2dbe 8d66 f1bd
000000f0: 22ee cd3e b69e c5be fda4 8e3e baa6 3abd
00000100: 8a7a cebd dc1e bc3d 5328 8ebf bb47 d63e
00000110: da1e cc3e 2a3a 383e 7822 c9be b55d 0dbe
00000120: 738c e63d f88b 40bf 0806 4cbf a9bf 0f3f
00000130: 195b 13bf a1a4 32bf 7e36 a93e 513c 403f
00000140: f183 62bf ad22 f13e a40b f0bd 9951 78be
00000150: ef3f c6be a5f0 163e d2b0 c23e cbd8 723e
00000160: bd30 3fbc 5f43 693f f21d 8c3e 9327 24be
00000170: 7303 aa3e 6883 65bf 5d55 b73d 645f 993e
00000180: d1d1 113e d814 08be 802c 66bd 4869 2e3f
00000190: 3394 5c3d c1d7 1c3e 90f6 753e 2695 ba3e
000001a0: f786 63be 7bd5 bf3e d134 fcbe 7bc1 b03e
000001b0: 28cf 873e 7902 b1be 3dc4 b0bd a206 e33e
000001c0: bd33 523f 20cd fe3e eeb5 a8be d93d 2a3f
000001d0: a0f1 2a3e 3ccc 0e3e c422 923f c77c 95be
000001e0: 9a6a 883d 8349 c13e e7af 1fbe 1ce9 2abf
000001f0: cc0f ac3e 0b8c 643f b0f1 593f 6c57 28bf
00000200: 6ad7 393f bb0c 863e fe93 32be 462d 503e
00000210: ab34 963e 7806 4dbe d838 87be dda5 f1be
00000220: 5e65 29be bae6 0d3e 975f cf3e 1af5 2dbe
00000230: 6459 dcbe 1c5c c9bd 829f 413e 39ca ca3e
00000240: c481 03be 1945 c1bd 0233 5f3e b56f 41be
00000250: bb86 90be e132 603e 6412 ea3e 96d1 f7be
00000260: ca7a 9abe 0bde 973e dffe b2be 5e1a 0bbe

sequential_71/dense_277/MatMul_bias f4 [12]
0.0 -0.024345513 0.0 -0.04934098 0.009314157 -0.0776208 0.06335693 0.023231538
0.07486306 0.0106496075 0.0 -0.02187318
00000000: 0000 0000 3e70 c7bc 0000 0000 c419 4abd
00000010: 689a 183c a7f7 9ebd 47c1 813d 1150 be3c
00000020: ce51 993d b17b 2e3c 0000 0000 622f b3bc

sequential_71/dense_278/MatMul/ReadVariableOp/transpose f4 [8, 12]
0.43124986 -0.20680201 0.3878411 0.39154452 -0.33142716 0.110785484 0.118578434 -0.41859084
-0.48252898 0.064376354 0.38704568 0.08663511 0.2832709 -0.07968578 0.41012895 -0.3597331
0.0070919394 -0.4429881 0.38509917 -0.07391879 -0.1916984 0.11792797 -0.41067493 0.27866244
0.0036147833 -0.37039453 -0.07783103 0.32649302 0.37525958 0.37238473 -0.29171395 0.40168202
-0.42056766 0.14835352 -0.44481736 -0.32780486 0.5351614 0.28394416 -0.04576993 -0.20103857
-0.19593774 0.4547532 0.21999966 -0.33742395 -0.5060085 0.23891906 0.1905052 0.14292406
-0.008405089 0.3782435 0.36048818 -0.55735385 -0.25192404 0.23099561 -0.40897453 0.4848589
0.30290145 0.39685676 0.12527287 -0.35163417 -0.10929537 -0.25510687 0.2848016 -0.51022595
-0.34677976 -0.089022115 0.46945095 0.22558515 -0.065508805 0.41300666 0.18766415 -0.21276017
0.21190506 -0.13945335 -0.04746008 0.5395597 -0.3919871 0.46681875 -0.4526742 0.4476142
0.41137138 0.17108233 0.0016897917 -0.54252523 0.5315784 -0.2197756 0.41670948 0.41028324
0.3036266 0.15751632 -0.59415764 -0.001172891 0.3388094 0.5028062 0.16759253 0.2969525
00000000: c8cc dc3e e8c3 53be 1c93 c63e 8678 c83e
00000010: d2b0 a9be 80e3 e23d 40d9 f23d 8a51 d6be
00000020: 0a0e f7be c0d7 833d da2a c63e c06d b13d
00000030: e208 913e 4c32 a3bd 6cfc d13e f02e b8be
00000040: 8063 e83b 56cf e2be b82b c53e bc62 97bd
00000050: 964c 44be 3884 f13d fc43 d2be d8ac 8e3e
00000060: 00e6 6c3b 5aa4 bdbe e065 9fbd 182a a73e
00000070: 0622 c03e 36a9 be3e 885b 95be 44a9 cd3e
00000080: a554 d7be fce9 173e 1abf e3be 0ad6 a7be
00000090: 5600 093f 2161 913e 4079 3bbd 0edd 4dbe
000000a0: e7a3 48be 69d5 e83e 9747 613e d5c2 acbe
000000b0: c689 01bf 33a7 743e cc13 433e af5a 123e
000000c0: 80b5 09bc 22a9 c13e e891 b83e beae 0ebf
000000d0: 30fc 80be 1d8a 6c3e 1c65 d1be 6d3f f83e
000000e0: e615 9b3e cf30 cb3e 8847 003e 6509 b4be
000000f0: 40d6 dfbd 5e9d 82be 84d1 913e 2b9e 02bf
00000100: 1e8d b1be 3a51 b6bd e05b f03e cbff 663e
00000110: 7b29 86bd 9c75 d33e 082b 403e cddd 59be
00000120: a4fd 583e dccc 0ebe 8065 42bd 9620 0a3f
00000130: 88b2 c8be de02 ef3e eac4 e7be b02d e53e
00000140: 459f d23e 3530 2f3e 007c dd3a efe2 0abf
00000150: 8615 083f db0c 61be f25a d53e a510 d23e
00000160: f274 9b3e f54b 213e b71a 18bf b1bb 99ba
00000170: 6d78 ad3e e8b7 003f 609d 2b3e 280a 983e

sequential_71/dense_278/MatMul_bias f4 [8]
0.0 0.0 -0.012901394 -0.051126864 0.045122467 0.05300948 -0.060480375 -0.060092885
00000000: 0000 0000 0000 0000 5e60 53bc 676a 51bd
00000010: 56d2 383d 7820 593d 45ba 77bd f523 76bd

sequential_71/dense_279/MatMul/ReadVariableOp/transpose f4 [1, 8]
0.26925945 0.47998834 -0.7335866 0.4389706 -0.09385383 -0.52217454 0.20773341 0.022876797
00000000: 60dc 893e 08c1 f53e 55cc 3bbf c1c0 e03e
00000010: 7036 c0bd 3bad 05bf 11b8 543e 1f68 bb3c
