MediAI/Finalized models/tf_lite_heart_model.tflite (tflite, 4272 bytes, 9 tensors)

sequential_4/dense_11/MatMul/ReadVariableOp/transpose f4 [12, 11]
00000000: 949c 64be 69d1 c7be e0c0 e6be 3f8a bcbe
00000010: f697 33be c060 5b3e 2c97 ddbe f0fb 71bd
00000020: fe9c 983e 8021 253c 1788 ddbe 4566 2ebe
00000030: 4128 5bbe 6b8b 45be 7647 36be 471b 4f3e
00000040: add3 a7be 40c9 febb 4d10 d13e 5d55 c23e
00000050: 6e1d 2e3f 7dd7 24be a04a 57bf 4e0d e4bd
00000060: 3289 03bf 25dd 2b3f 6ef5 bb3d 835a 663f
00000070: d62c b63e b634 173d 91f0 f73e 0489 d13c
00000080: dbe3 bdbd 4614 8cbd 1260 4abe 9460 95bd
00000090: d1df 67bf 49ef 37be e9a9 1fbe 262d 96be
000000a0: 6cd1 2a3f e0e9 113f 9041 463e 7606 cfbd
000000b0: fe9c 4ebf 7577 60be 0c57 e53d 5d2f 93be
000000c0: 5804 d4bd dbeb f03d 1ec6 223f 121e abbe
000000d0: 0c11 29bf 2154 563f 5f17 fdbe 8d0f f8be
000000e0: 0026 edba 0088 1a3a 108e 9e3e 7178 e6be
000000f0: d51d 8dbe 9654 23be 82a4 48be ac53 2c3e
00000100: 60d0 ba3d 15e2 b7be 516b 2d3e caae 54be
00000110: 32cb 28be f959 b6bd 9b3e 7a3f 1e5e 583f
00000120: ebe6 903d 35ca 2dbe fcfa 9b3c 3a41 3ebe
00000130: 1785 bd3e 2ada 423e fa09 6abe f5f1 18be
00000140: fdf6 25bf 9ea7 6f3e 3fc9 2d3f 36c1 50bf
00000150: e95e 6dbe ce8f deba 0fcc 67bd e254 30bf
00000160: 4af6 8abe 90dd adbe 223e 843e c1ec cc3e
00000170: 454d 9dbe 9d4e c1be c0fc 483f 7fec bf3e
00000180: 1819 e5be e86d cebe 8e50 b0bd d2fc 803d
00000190: 63ae 7b3d e9e3 e43e 65c2 983e a62e 0c3f
000001a0: 3987 8b3f 8ffb 063f a2d6 be3e a5c8 823c
000001b0: eaf1 5e3e 2829 afbe ecb6 b13d 25e1 54bf
000001c0: e4fb 123d 97dd 4a3e 0d17 b8be 5ccd 2c3d
000001d0: 2dee b13e 9efc 0e3f 881f f63e a1d5 153f
000001e0: 0db4 ec3c 1bcc 1b3a b44a 6fbe 8484 0d3f
000001f0: 00a4 8bbd 9601 8ebe cf53 82bf 6bc9 b8be
00000200: 92bb a03d 5d82 0b3e 2777 2c3e 83a2 f93e
-0.22325355 -0.39026955 -0.45069027 -0.36824223 -0.17538437 0.21423626 -0.43279397 -0.059078157
0.29807276 0.010078788 -0.4326789 -0.170312 -0.21402074 -0.19291465 -0.17800698 0.20225249
-0.32778683 -0.0077754557 0.4083275 0.37955752 0.68013656 -0.16097827 -0.84098244 -0.1113535
-0.5138122 0.67134315 0.091776714 0.8998186 0.35581082 0.036915503 0.48425725 0.02557803
-0.092719756 -0.06839804 -0.1976321 -0.072938114 -0.9057589 -0.17962374 -0.1559216 -0.2933132
0.667258 0.5699749 0.19360948 -0.10108654 -0.807083 -0.21920569 0.111982435 -0.28747073
-0.10352391 0.11763736 0.6358355 -0.3342138 -0.66041636 0.8372212 -0.49431893 -0.48449364
-0.001809299 0.00058948994 0.3096776 -0.45013765 -0.27561823 -0.15950236 -0.19594005 0.16828793
0.091217756 -0.35914674 0.16935469 -0.20769802 -0.16483763 -0.0890388 0.9775178 0.8451861
0.07075294 -0.16971667 0.019040577 -0.1857957 0.37015602 0.19028535 -0.22855368 -0.1493605
-0.6483 0.23403785 0.678852 -0.81544816 -0.23180737 -0.0016980113 -0.05659109 -0.6887952
-0.2714103 -0.339581 0.25828654 0.4002438 -0.30723014 -0.3775529 0.78510666 0.3748512
-0.44745708 -0.40318227 -0.086091146 0.06298222 0.061445605 0.44705132 0.2983581 0.5475868
1.0900642 0.527276 0.37273127 0.015964815 0.2177197 -0.34211087 0.08677468 -0.83156043
0.035884753 0.19811092 -0.35955086 0.042188033 0.34752026 0.55854213 0.4807093 0.58529097
0.028894449 0.0005943195 -0.2336834 0.5528033 -0.0681839 -0.27735585 -1.0181826 -0.3609117
0.07848276 0.13623948 0.16842328 0.487568

sequential_4/dense_11/MatMul_bias f4 [12]
00000000: 0000 0000 b6c9 8cbc 1f52 4dbd 73d0 1d3d
00000010: 6b5b a03c 0000 0000 75a6 19be 156c ce3e
00000020: c8e0 1e3e 686c 32be b6ef e3bd 25e9 933e
0.0 -0.017186027 -0.050127145 0.03852887 0.019574841 0.0 -0.15004905 0.40316835
0.15515435 -0.17424166 -0.111297056 0.28888813

sequential_4/dense_12/MatMul/ReadVariableOp/transpose f4 [12, 12]
00000000: c047 f8bd 29da e23e 6b75 e43f 3e8b 353f
00000010: f83f 16bf 78da e53e 7dc6 f73e e9a5 793e
00000020: bf57 c9bb f130 883e 1476 bf3e 38ab 12bf
00000030: 402b 3ebe 25ac a43d 24db c2bf 2840 01bf
00000040: a5f3 6a3f 00a7 7e3e 8d6d 8c3e 7403 a8be
00000050: aaf3 ab3e 8504 21bf 879b 90be 11e7 f03e
00000060: 70e5 c2be 73fe 0cbc 4572 e13f 6056 2a3f
00000070: c5e9 9bbf 40dd 28be 446e dabe 4a65 7d3e
00000080: cfff 0cbf 1e8e debe 1808 88bd e7e6 803e
00000090: 8440 a3be 53bb 013f fc40 86bf eb00 b5bf
000000a0: 2e92 9dbf c03c e43d 8dfe c8be 0876 cc3e
000000b0: e9c6 df3e 1849 21bd 6e9f 703e dd07 b2be
000000c0: 9cb7 b93e e3a9 81be 29fa 1a3f 6f79 aebf
000000d0: 071a 3d3d 6048 fbbe 6d55 2ebe c7c5 e7be
000000e0: 5442 9cbf e83b a03e a78c 71be 3549 f7bd
000000f0: 48e5 373e 9d82 8c3e eb0d 983d 2aa0 a7be
00000100: 4867 c73e 9cae 8c3e 28ea 49be 8d16 3e3d
00000110: 42fe 603e bc9b 4bbe bb0a 213c b11f afbe
00000120: 64c6 c9be ec13 ff3e bccf 11bf e2d1 883f
00000130: 6972 77bf 4449 e6be a15c 89bf a8e7 e13e
00000140: 1c64 95bf d026 fabe 4e42 823c 0f8a 233e
00000150: b0b7 d2be e91e c33d fef1 443e 3639 173f
00000160: 22ee 93be d8ac 003e cb14 bc3e 9c92 92be
00000170: 5436 013f 877b 833e c231 d9bd 7068 03bd
00000180: 40ae b13d 65ff f13e 59d3 853f 1c15 773e
00000190: fb97 463f 0888 e6be 057c 4e3e 3144 943e
000001a0: 319c c43e 6e9e 31bf e070 4ebf 887c a93e
000001b0: d8fd 11be 7a79 893e 817a 1bbd a2ec d0be
000001c0: 25ef 573f 90b2 e8bd a6ee 133f 73a5 ce3d
000001d0: 1b03 30bf e5f9 0e3f 68f7 0a3f c8cb 523d
000001e0: 0443 933e 6fbc d6be 6bdf 5a3e e509 f8bd
000001f0: 9149 74bd 54df f8be 28b7 c239 5549 efbe
00000200: bb23 ccbe 62bf 0d3e 6600 3c3f 2aed ff3d
00000210: e01b 753e 1f8f 4e3f 5784 97bf 2581 4c3e
00000220: cd18 423f 00b0 74bc f5bb 0e3d 9b9a cdbf
00000230: 4c6d 8dbf b83b 05be aa98 ca3d a66b 48be
-0.1212306 0.44307068 1.7848333 0.7091559 -0.5869136 0.4489324 0.48393622 0.24379696
-0.0061444934 0.2659984 0.37394774 -0.5729251 -0.18571186 0.080406465 -1.5223126 -0.5048852
0.9177802 0.24868393 0.2742733 -0.32815135 0.33584338 -0.6289752 -0.28243658 0.4705129
-0.38065672 -0.008605587 1.7612997 0.6653805 -1.2180716 -0.1649065 -0.4266225 0.2474567
-0.5507783 -0.43467802 -0.06642169 0.25176165 -0.3188516 0.5067646 -1.0488582 -1.4140905
-1.2310236 0.111444 -0.39256707 0.399338 0.43706444 -0.03937635 0.23498318 -0.34771624
0.36272895 -0.25324926 0.60537964 -1.3630809 0.0461674 -0.49078655 -0.17024775 -0.4526808
-1.2207742 0.31295705 -0.23588811 -0.1207451 0.17958558 0.274434 0.0742453 -0.32739383
0.38945985 0.27476966 -0.1971823 0.046408225 0.21971992 -0.19883627 0.0098292185 -0.34203866
-0.39409173 0.49819887 -0.569576 1.0689051 -0.9665895 -0.44977772 -1.0731393 0.44122052
-1.1671176 -0.48857737 0.015900757 0.15970634 -0.41155767 0.0952738 0.19232938 0.5907167
-0.28892618 0.12565935 0.36734614 -0.2862748 0.50473523 0.2568018 -0.10605194 -0.03208202
0.08675814 0.47265163 1.0455123 0.24129146 0.77575654 -0.4502566 0.20164497 0.28958276
0.38400415 -0.6938237 -0.80640984 0.33102822 -0.1425699 0.26850492 -0.037958626 -0.40805537
0.8434928 -0.11362183 0.57786024 0.10090151 -0.6875474 0.5585006 0.5428376 0.051463872
0.28762066 -0.41940638 0.2137429 -0.12111262 -0.05964047 -0.48607886 0.00037139026 -0.46735635
-0.3987101 0.13842538 0.7343811 0.12496407 0.23936415 0.80687135 -1.1837262 0.1997114
0.75819093 -0.01493454 0.03484722 -1.6062807 -1.104898 -0.13011062 0.098923996 -0.19572315

sequential_4/dense_12/MatMul_bias f4 [12]
00000000: 7915 11be e8db b43d 158a a13e 772d 323e
00000010: 6fd2 afbd 5dcd c3bd a7f7 86bc 9208 32bd
00000020: d1d8 3c3e fa10 26be 6ef5 b93d 6026 4a3d
-0.14168347 0.08831006 0.3155066 0.17400156 -0.08585059 -0.09560654 -0.016475512 -0.043465205
0.18442084 -0.16217414 0.09080015 0.049353004

sequential_4/dense_13/MatMul/ReadVariableOp/transpose f4 [8, 12]
00000000: 70b5 21bd 5182 f0be f8d4 6abe 5076 eabd
00000010: 00fc 2c3c 86f7 29be 005f e53d 48c8 e2be
00000020: 96a8 1cbe fa8a d7be 1d1f cebe 98cf fb3e
00000030: 2a93 523e f1e6 773c 6d11 873f 10d6 273f
00000040: 6a48 4ebf 32c6 e8bd 87f9 84bf 6e2b 72be
00000050: 736e cebd d3e9 61be ef09 d23e 3222 793e
00000060: ae55 083f 4dd8 36be 9cb3 59bf 625b 123f
00000070: a1c7 b63f 7b59 81bd 3238 e3be 85b5 293f
00000080: 8ef8 1cbf 6e06 f2bd b2cb 313e 8eac 9fbe
00000090: 9c5d 773e fdd3 8f3c 9001 b83f 9da5 223f
000000a0: 6d76 93be 1c9e 6b3d 37e7 93bf 3fea 2fbf
000000b0: bb43 df3e 393b c7be 9bd5 5bbe 4791 5ebc
000000c0: 7cd5 343f 6074 1fbf 4959 31bf 75cb 69bd
000000d0: 379c b13f 8cd1 babe 5154 cd3d 18fe 4dbd
000000e0: 6cac 10bf 4e5e 9c3e f570 73bd 089f 3fbf
000000f0: bea1 033f 182e 803e 4931 7fbf ed07 f0be
00000100: be9c 9e3f f008 dbbe f96c 8ebf cd01 8e3e
00000110: 23a3 573d 46c4 513f 832f cebe d391 efbe
00000120: 361a 17bf a9ed 83bf d7d6 d83e f0a3 533d
00000130: 4fbf a2bf 2933 a53e a674 85bf ca8e 2a3e
00000140: 4534 cabe 9405 97bd da7f 3d3f 7288 743f
00000150: 10ca 11bf 68d5 a13d 3505 bc3f 2b79 f63e
00000160: a19d 9d3d 99ff 6d3e 94b9 6abf 2738 803e
00000170: 8594 103f 3fc5 56bf 6d03 d0be 1966 49bf
-0.039479673 -0.46974424 -0.22932804 -0.114483476 0.010558128 -0.16598329 0.111997604 -0.44293427
-0.15298685 -0.42098218 -0.40258113 0.4918182 0.20563951 0.015130744 1.0552193 0.6556101
-0.80579245 -0.11365928 -1.038865 -0.2364938 -0.1007966 -0.22061853 0.41023204 0.2432945
0.53255737 -0.1785595 -0.8503969 0.5717069 1.4279672 -0.06315895 -0.4437881 0.662926
-0.61316764 -0.118176326 0.1736286 -0.31186336 0.24156803 0.017557139 1.4375477 0.63533956
-0.2880129 0.05752383 -1.1554936 -0.68716806 0.43606362 -0.3891237 -0.21468203 -0.0135844415
0.7063825 -0.6228695 -0.69276863 -0.057078797 1.3875798 -0.36487997 0.10025848 -0.05029115
-0.56513095 0.305407 -0.059433896 -0.7485204 0.51418674 0.25035167 -0.9968458 -0.46881047
1.2391584 -0.42780256 -1.1127006 0.2773575 0.052645814 0.81940114 -0.40270624 -0.46790943
-0.5902437 -1.0306903 0.4235141 0.051670015 -1.2714633 0.32265595 -1.0426223 0.16656032
-0.39493003 -0.07374111 0.7402321 0.955207 -0.5694895 0.07902032 1.4689089 0.4813932
0.07696081 0.23242034 -0.9168942 0.2504284 0.5647662 -0.83894724 -0.40627614 -0.78671414

sequential_4/dense_13/MatMul_bias f4 [8]
00000000: 0000 0000 e95d 993e 7569 a73b 93ba e93d
00000010: 9238 dfbc b885 a03c db95 263e c9b5 823e
0.0 0.2995446 0.005109007 0.11412539 -0.027248655 0.019595012 0.16268103 0.25529316

sequential_4/dense_14/MatMul/ReadVariableOp/transpose f4 [8, 8]
00000000: 7db6 183f 6d2b 163f a1d6 953e 2d7e 93bf
00000010: 1301 6fbf dd51 70bf 1daa 8abf 406c db3e
00000020: 0be5 0ebf d59a 83be 212e 83be fe49 17bf
00000030: 3ea1 113f 5804 653f cf9a 5fbf 432e 71bf
00000040: 072a 9cbe e409 78be 688a 34bf ed1f bcbe
00000050: 00ba f73d f55d c53d d0e3 f93e 3c23 04be
00000060: 5a6b d43e 7031 97be eb0d 58be 84e7 8bbf
00000070: a0c0 77be f6fa c93e b53d 5a3e b950 2c3e
00000080: 4cb9 743e bd92 123f bec5 e4be 40e3 443f
00000090: 89eb 1c3e 5ed7 91be f9a6 c13f 42d9 6f3f
000000a0: 80c8 4bbc eaf9 d83e 0a2f 2e3f a667 97bf
000000b0: dc08 473f 4169 5d3f 2624 aabf d824 10bf
000000c0: 94a5 13bf 1685 87bf 1101 24bd 9e86 f8be
000000d0: 6d53 ce3e f505 bd3e 07f9 03c0 921b 303f
000000e0: 107d f9bd 27fb 4c3f 30c3 bb3e 9ef4 853f
000000f0: 4684 81bf 2a81 0ebe 39bb b73f 76fa 843f
0.59653455 0.5866001 0.2926531 -1.1522881 -0.93361014 -0.93874913 -1.0833164 0.42856026
-0.5581824 -0.25704065 -0.2562113 -0.5909728 0.5688666 0.89459753 -0.87345594 -0.94211215
-0.30500814 -0.24222523 -0.7052369 -0.36743107 0.120960236 0.096370615 0.4880662 -0.12904066
0.41488153 -0.29529905 -0.2109906 -1.0930028 -0.24194574 0.3944928 0.21312602 0.16827668
0.2389881 0.57255155 -0.44682115 0.76909256 0.15324225 -0.28484625 1.5129081 0.93690884
-0.01243794 0.4237817 0.68040526 -1.1828506 0.77747893 0.8648873 -1.3292282 -0.5630622
-0.5767453 -1.058749 -0.04004008 -0.48540205 0.40298024 0.36918607 -2.0620744 0.6879207
-0.12182057 0.8007073 0.36672354 1.0465276 -1.0118492 -0.1391646 1.4354011 1.0388935

sequential_4/dense_14/MatMul_bias f4 [8]
00000000: 7983 323e 21c0 993e f786 2cbd bb78 92bd
00000010: 8666 aa3d 0616 c73d 9740 ebbd 9946 db3d
0.17432965 0.30029395 -0.0421209 -0.07151934 0.08320336 0.097209975 -0.11486929 0.10706825

sequential_4/dense_15/MatMul/ReadVariableOp/transpose f4 [1, 8]
00000000: 7898 0440 6280 7e3f 7489 24bf f443 9ebe
00000010: 5e69 9bbf d136 b93f 21dd bcbf 3f6a cbbf
2.071806 0.99414647 -0.64272237 -0.3091122 -1.214153 1.4469854 -1.4754983 -1.5891799
