MediAI/Finalized models/tf_lite_diabeties_model.tflite (tflite, 4992 bytes, 9 tensors)

sequential_40/dense_131/MatMul/ReadVariableOp/transpose f4 [24, 8]
000000 14 89 a3 3d 8b 65 99 be d4 c9 be be ca 98 3e 3e
       0.0798513 -0.29960284 -0.37263358 0.18612972
000010 fc ab 7b be f8 0c 31 bd 2a a5 43 3e d6 c1 98 be
       -0.24577326 -0.04322526 0.19105974 -0.29835385
000020 78 15 13 3e 34 6a c0 3e b5 e0 90 be 94 c8 85 3e
       0.14363658 0.37581027 -0.28296438 0.2612959
000030 b1 9d b0 be 57 61 01 3f d9 7b 01 3e 52 37 84 3e
       -0.3449531 0.50539154 0.126449 0.25823456
000040 a7 40 24 3f 45 5a 9c 3c ce a5 14 3e 3a ab 14 3f
       0.6416115 0.019086013 0.14516374 0.5807377
000050 8b 73 03 3e 41 0d 37 3e 6f c2 b2 3e 51 3a 47 3e
       0.12837045 0.1787615 0.34913966 0.1945584
000060 18 50 c7 3e b6 27 9d 3e ce 3e d1 3d 7e 5a 83 be
       0.38928294 0.3069436 0.10217057 -0.25654978
000070 d6 27 51 3e 58 2b ba 3d a3 94 0d 3f 5f 76 27 3e
       0.20425352 0.090902984 0.55304927 0.16353749
000080 68 14 cc 3c bd 6c 10 be e7 df cf bc 6d ef dc be
       0.024912074 -0.1410398 -0.02537532 -0.43151417
000090 46 ea 80 be d2 7c 55 be 26 ac 8e 3e 99 e1 48 3f
       -0.25178736 -0.20848396 0.27865714 0.78469235
0000a0 e2 be 2b bf 0a 54 25 3e b1 5c b1 3a 06 c9 14 3f
       -0.6708814 0.1614534 0.0013531653 0.5811924
0000b0 92 27 07 3f 8e c4 1f be 2e 32 09 3e 2e 2d 75 3c
       0.52794755 -0.15602323 0.13398048 0.014964385
0000c0 38 11 34 3d 11 62 9c be fc c0 8b be 18 f1 1b be
       0.043961734 -0.3054357 -0.27295673 -0.15228689
0000d0 c2 4f 4d be 3e 9c 2f 3e cc b1 db 3d 98 9a 85 bd
       -0.20049956 0.17149445 0.107272714 -0.06523627
0000e0 ab 65 26 bf 72 7c d2 3e 32 dc 6b bd 52 1c e1 be
       -0.64998883 0.4111057 -0.05758304 -0.4396692
0000f0 6f f0 cb be 66 9c e7 3e 2c 4f f0 be ac aa 0a 3e
       -0.39831874 0.4523651 -0.46935403 0.13541669
000100 38 23 cd 3e e9 05 7a 3e d9 8e 09 bf d8 89 95 3e
       0.40065932 0.24416317 -0.53733593 0.2920673
000110 37 27 e5 3d f5 68 19 bf 48 f4 13 3e 53 ee 16 bf
       0.1118912 -0.59925777 0.14448655 -0.58957404
000120 ab 8e 35 bf f4 e5 63 be 8f 8a 0c be 9f a9 99 3c
       -0.7092082 -0.22255689 -0.13724731 0.01875764
000130 74 f2 ed 3e 45 17 a4 be b3 32 15 3f 7f f5 60 bb
       0.4647404 -0.32049003 0.58280486 -0.0034326015
000140 82 9e 70 3e 4e ee fb 3e 9d f2 8b be 97 e1 b0 3d
       0.23497966 0.4920525 -0.27333537 0.08636778
000150 3e 77 c0 3e a9 d5 19 be 73 08 df 3e ce 33 97 3e
       0.37590975 -0.15022911 0.43561134 0.2953171
000160 1b 08 1d be 5f 1b a2 3d 59 72 1d be 11 6c c7 3d
       -0.15335123 0.07915377 -0.15375651 0.09737409
000170 9d 58 cf bd 65 ed b8 be 40 0f d8 3d 19 d8 61 bf
       -0.101243235 -0.36118618 0.10549784 -0.88220364
000180 db da 8e be 75 0f 08 3e db 16 7e 3e 18 de 82 be
       -0.27901348 0.13287146 0.24813406 -0.2556007
000190 c1 39 9a bc 5c cf 54 be 52 72 81 bf 27 4e 61 be
       -0.018826367 -0.20782226 -1.0113013 -0.22002469
0001a0 f9 dd 7b 3c d5 cf da be 38 cb 3e 3e bc 39 a9 3e
       0.015372747 -0.42736688 0.1863221 0.3305186
0001b0 a0 42 bb be cf 4a c8 be cd e3 d3 3c fa 58 b4 be
       -0.36574268 -0.39119574 0.02586546 -0.35224134
0001c0 55 08 1c bd 7c ee f6 3e 12 b2 60 be 57 b4 11 be
       -0.038093884 0.48228824 -0.21942928 -0.1422895
0001d0 cb 77 91 3d 5d 92 bf 3c 9e 10 c1 3e c1 86 49 be
       0.07102927 0.023385221 0.3770799 -0.19680311
0001e0 f2 df 32 be ba e3 1c be ec be 34 3d ea 79 a3 3e
       -0.17468241 -0.15321246 0.04412739 0.3192895
0001f0 8b f7 bb 3e 82 dc d6 bc 31 44 c2 bc 3c 0f 20 bf
       0.36712298 -0.026228193 -0.023714157 -0.62523246
000200 f4 6d 09 be 30 69 92 be ce c7 54 be 9d c1 c8 3e
       -0.1342085 -0.28595877 -0.20779344 0.39210215
000210 ae 93 7f 3e c2 64 71 be 26 6e 33 be e6 33 88 be
       0.24958679 -0.23573592 -0.17522487 -0.26602095
000220 92 ee 8e 3e 1c e8 2f bd f6 0a 23 3e 24 39 bd 3e
       0.2791639 -0.042945966 0.1592215 0.36957657
000230 ec ad 09 3e ed 98 c9 3c 00 91 30 3d fa 7b 52 3e
       0.13445252 0.024609054 0.043107033 0.20555106
000240 1f 25 0a 3d f7 e8 db 3d f5 16 b4 3e ea 58 b1 bd
       0.033726808 0.10737794 0.35173765 -0.08659537
000250 c8 68 7f b9 5f 33 75 be ab f5 c8 be 83 a4 f3 bd
       -0.00024357729 -0.23945378 -0.3924993 -0.118966125
000260 df 09 1a be a2 6b 0e 3f 3f 9b 15 3f d0 33 c1 be
       -0.15042828 0.55632985 0.5844001 -0.37734842
000270 ea d0 90 be bf 08 ef 3e dd 1b 8b be 6f 62 b1 be
       -0.2828439 0.4668636 -0.27169695 -0.3464541
000280 99 8e 50 3e 60 0e ec be 47 5c 49 be a7 3e fd 3e
       0.20366897 -0.46104717 -0.19664107 0.49461862
000290 08 70 e0 3d 62 2d 87 3e 1c bf 29 3e ea 38 d7 bc
       0.10958868 0.26401812 0.16576809 -0.026272256
0002a0 75 20 78 bd 97 2f f0 bd e6 3d 9b 3e f3 27 3d be
       -0.06057783 -0.11727827 0.30320662 -0.1847227
0002b0 5e 12 7d be 27 64 96 be 9c ee b1 bc ef 2c f9 3e
       -0.24714038 -0.29373285 -0.021720223 0.48667094
0002c0 90 af f8 be 7d 55 e9 bb 4c 92 8b 3e 61 8a 6f 3e
       -0.48571444 -0.0071207867 0.27260053 0.23392631
0002d0 79 4f db be 68 32 e0 be 45 38 7a be d4 13 d2 be
       -0.4283407 -0.43788457 -0.24435528 -0.41030753
0002e0 b0 10 ad bd 64 04 2b be 17 ea a4 3e f5 3c 29 bf
       -0.084504485 -0.16700894 0.32209846 -0.6610864
0002f0 fd d8 a9 3e c0 17 84 bc 2a 8a e1 bd d0 2b 15 bf
       0.3317336 -0.016124606 -0.11012681 -0.5826998

sequential_40/dense_131/MatMul_bias f4 [24]
000000 00 00 00 00 a7 4b d2 bd 07 4d 7a 3e b4 e0 58 be
       0.0 -0.10268336 0.24443446 -0.21179467
000010 20 4b bc bd de 36 d5 bd 00 00 00 00 b9 6a b3 3e
       -0.091940165 -0.10410856 0.0 0.3504236
000020 e5 86 5b 3e 2e 63 33 3e 78 81 56 be 2f ed 2b 3e
       0.21438177 0.17518303 -0.20947826 0.16789697
000030 5e c7 2d 3d 35 37 3b bd 9a 90 6e 3b a9 00 10 3e
       0.04242646 -0.045706946 0.0036402107 0.14062752
000040 00 00 00 00 bf b3 3f 3e ec c7 a0 3e 49 a7 d5 3d
       0.0 0.18720911 0.31402528 0.10432298
000050 af fc 42 3e c3 14 9d 3e c1 65 81 3e 7e 61 4b 3e
       0.19041704 0.30679902 0.25272945 0.19861409

sequential_40/dense_132/MatMul/ReadVariableOp/transpose f4 [12, 24]
000000 84 4a 8e 3d e3 56 81 3e 68 8c a5 3d 33 ba dc 3d
       0.069478065 0.25261602 0.08083421 0.10777702
000010 7d 2f 48 be 10 4d cd 3e 24 8d 03 3e 31 7f 4a 3e
       -0.19549365 0.40097857 0.1284681 0.19775082
000020 3d e2 5f bf f4 63 0b be 4c bf 1e be 98 4d 70 bf
       -0.8745459 -0.13612348 -0.15502661 -0.938684
000030 72 aa 39 bf 7d 77 99 3e 7a b5 30 3d cd 97 fb 3d
       -0.72525704 0.29973975 0.04314182 0.12284813
000040 a6 1f 19 be f9 c7 b4 be 20 e1 d4 bb f9 bd 8c 3e
       -0.14953479 -0.35308817 -0.0064965636 0.27488688
000050 dc e6 76 be 90 2a 0d be ee b5 b1 3c 68 07 2b bf
       -0.24111503 -0.13785768 0.021693196 -0.66808176
000060 2d 73 97 be cf 4a 9c 3e 42 04 9d bc ec ad 9c 3e
       -0.2958006 0.30525824 -0.01916707 0.30601442
000070 22 e0 48 bf be 72 27 3f d0 68 c6 3c a9 87 53 be
       -0.78467 0.6540946 0.0242199 -0.20657219
000080 07 12 9d bd 92 95 35 bf d5 bf de 3e c1 3e d4 bf
       -0.07669454 -0.7093135 0.4350573 -1.6581651
000090 5c 89 b6 bf e0 e5 77 3e c5 5a a5 3e 9d 02 06 bf
       -1.4260669 0.24208784 0.32295814 -0.5234774
0000a0 10 7b 25 3e 32 19 55 3e 7d fe 20 3c 90 0f 89 3e
       0.16160226 0.20810392 0.0098263 0.26769686
0000b0 5b e9 dd 3d 8a cf 42 3e 78 4b 3c bf 73 20 06 bf
       0.10835525 0.19024482 -0.73552656 -0.52393264
0000c0 f8 c8 bb 3d 83 1b 1c be 36 88 a6 3d ae ec c4 be
       0.09169191 -0.1524487 0.08131449 -0.38461822
0000d0 ff 4c 2f 3e ea d8 22 bf b4 43 06 be 93 c3 04 3e
       0.17119215 -0.63612235 -0.13111764 0.1296523
0000e0 5d 56 a7 be 87 51 3b 3f ff 90 8b be a9 15 f0 3f
       -0.32683077 0.73171276 -0.2725906 1.875661
0000f0 43 89 50 3f 97 60 ba be 53 9b 02 bf 42 95 53 3f
       0.81459445 -0.36401817 -0.51018256 0.82649624
000100 56 1e 52 be cd 2d d5 bd 24 bc f3 3e 86 cd 8c 3e
       -0.20519385 -0.104091264 0.47604477 0.27500552
000110 18 df 9f 3e 48 a5 e2 3e 3f 22 3a 3f 33 41 65 3f
       0.31224895 0.44266725 0.72708505 0.8955261
000120 64 db 3a 3e a6 ca 6b bc b4 90 82 3d e6 fb 38 bd
       0.18247753 -0.014391577 0.06375256 -0.045162104
000130 a4 70 c1 3e 0c 18 67 3e d3 c2 92 be f6 64 b6 3d
       0.3778125 0.22567767 -0.28664264 0.089059755
000140 ea f3 62 be bc 68 40 3f f7 72 6e 3e 79 15 1b 40
       -0.22163358 0.7515981 0.23286043 2.4231856
000150 f0 4e a9 3f 44 5e 60 3e 97 8d cd 3e f3 af bf bc
       1.3227215 0.2191096 0.40147087 -0.023399329
000160 a4 f7 bf be 25 cb 4c bd 1e 3e ef bc 5d 28 87 be
       -0.37493622 -0.04999842 -0.029204424 -0.26397982
000170 d2 30 52 be 16 40 86 be 8a 7a 21 3f 38 16 06 3f
       -0.20526436 -0.2622077 0.63077605 0.52377653
000180 3d 3c 78 be ac 6f 71 3e 15 2b f2 be c9 ed 64 be
       -0.24241729 0.23577756 -0.47298494 -0.22356333
000190 2d dc f3 3e 06 f2 02 3f e0 57 29 bc da f3 2b 3f
       0.47628918 0.5115055 -0.010335892 0.6716896
0001a0 98 3f bf 39 6d 6c b1 bf 06 60 b3 be 51 77 b2 bf
       0.0003647774 -1.3861214 -0.35034198 -1.3942662
0001b0 b4 98 58 bf 0d 95 44 be b6 60 08 3d 96 32 f1 be
       -0.84608006 -0.19197483 0.033295356 -0.47108907
0001c0 78 eb 17 be 8a 0b 01 bf cc e8 43 3e c0 f6 f7 3e
       -0.14835918 -0.5040823 0.19131774 0.48430443
0001d0 58 e4 86 be d4 b6 02 3e 24 6b e4 3d 76 9d 29 be
       -0.26346087 0.12765056 0.11153248 -0.16563973
0001e0 20 f3 46 3e b0 71 95 3e 02 d5 44 3d 51 18 5a 3e
       0.19428682 0.291883 0.048054703 0.21298338
0001f0 44 d3 5b bf 35 d9 4d 3e 46 e0 02 be 7a db 5b 3e
       -0.8586924 0.20102389 -0.12780866 0.21470442
000200 94 aa 89 bf ef a0 f3 be 55 d9 a8 3e db 93 70 bf
       -1.0755181 -0.4758372 0.3297831 -0.9397561
000210 2f 24 61 bf 0c 7e 64 be ac 99 bf 3d 2a c7 de be
       -0.87945837 -0.22313708 0.093554825 -0.43511325
000220 02 07 b0 be a0 11 11 be 6a 15 c3 3d ae a5 c7 3e
       -0.34380347 -0.1416688 0.09525569 0.3899359
000230 aa e9 cc be 7a 2b 03 bf da ca 44 be 03 80 a6 be
       -0.40022022 -0.51238215 -0.19218007 -0.3251954
000240 a3 dd 4f be 0b 9b 67 3e 5d e7 5d be aa ce 9b be
       -0.20299391 0.22617738 -0.2167029 -0.3043111
000250 e6 89 9b be f6 a2 87 be b2 02 9a 3e be 52 44 bc
       -0.30378646 -0.26491517 0.3008018 -0.011982618
000260 fd de a2 bc 53 7f 20 be 87 38 1b 3e ab 45 5e be
       -0.01988172 -0.1567357 0.15158282 -0.21706264
000270 34 e8 ca bd 50 df c3 bc 01 09 dd be f8 b0 fc 3d
       -0.099075705 -0.023910195 -0.43170932 0.123384416
000280 50 e9 82 3c 75 ef 31 3e 7a 4e 03 be 49 7f 34 be
       0.015980393 0.17376502 -0.12822905 -0.1762668
000290 ee c6 50 3e e5 f4 f6 bd ae 21 0b be d3 29 9e bd
       0.20388386 -0.12058429 -0.13587067 -0.07722821
0002a0 84 bf cb 3e 90 84 a6 3e 7a 98 59 3e fc 3f a9 be
       0.39794552 0.32523012 0.21249571 -0.3305663
0002b0 29 dd 90 3e 51 1b f0 be 5c ec 86 bd fd aa fb 3e
       0.28293732 -0.4689584 -0.06588051 0.4915389
0002c0 87 c3 f3 3b f5 fa 17 3f 43 29 04 bf 40 fc 11 40
       0.00743908 0.59367305 -0.5162546 2.281021
0002d0 b6 e0 2d 3f 11 b5 92 be f4 10 81 be 2e 54 7f 3d
       0.67921007 -0.28653768 -0.25208247 0.06233614
0002e0 84 84 7a be 06 98 bc 3e 7b 94 db 3c 46 14 f2 3e
       -0.24464613 0.36834735 0.0268042 0.47281092
0002f0 35 26 48 be a3 cb 4f 3e 23 5f 05 3f 8f 30 e6 3e
       -0.19545825 0.20292525 0.5209829 0.44958922
000300 79 a5 a7 be 12 ba 97 3e c9 ec a1 3e 79 90 94 be
       -0.32743433 0.29634148 0.31625965 -0.29016474
000310 a7 01 91 3d a8 e4 2f bf b6 33 bb 3e f7 4b 2e 3f
       0.07080393 -0.68708277 0.3656289 0.68084663
000320 d6 0c 2e 3f 95 5b f6 3c bd a6 7a 3e ab 82 21 40
       0.67988336 0.030072967 0.24477668 2.5236003
000330 69 54 d1 3f bf b9 42 be a7 25 06 bd 55 0f 18 3f
       1.6353885 -0.19016169 -0.03275075 0.59398395
000340 02 14 a4 3e 89 af e8 3e a4 14 39 3f fb 08 f8 3e
       0.32046515 0.45446423 0.7229712 0.48444352
000350 8f fa b7 bb f6 b5 cf bd 82 fe b7 3f 04 bd ac 3f
       -0.0056145857 -0.10142128 1.4374545 1.3495183
000360 00 42 1c bb d6 57 be 3e af 60 47 be 13 88 0b 3f
       -0.002384305 0.37176389 -0.19470476 0.5450451
000370 02 cd a6 bf 0e c5 76 3e 56 4b a9 be 75 1a 8d be
       -1.3031313 0.24098608 -0.3306529 -0.27559248
000380 a9 5e 01 3f 0a 19 46 be 4a 40 bc 3e 0e 66 b3 bf
       0.50535065 -0.19345489 0.367678 -1.401552
000390 6c e3 58 bf 14 5f 8e 3e bf 87 91 3e 33 94 ff be
       -0.8472202 0.27806914 0.2842388 -0.49917755
0003a0 80 09 9e 3e ff c2 e5 bd e5 4e 8d bd 2c 5c e0 3e
       0.30866623 -0.11218833 -0.068998136 0.43820322
0003b0 b7 c3 fd 3d 68 05 40 be b3 63 c4 bd fe 29 07 be
       0.12390845 -0.18752062 -0.095893286 -0.13199612
0003c0 d8 df 22 bd 2b b7 af 3d c4 9d 89 3d 61 cf 11 bf
       -0.039764255 0.085798584 0.067195445 -0.5695706
0003d0 11 5d f7 3d de d6 bb be d8 13 7b bd 68 3a 50 bd
       0.12078298 -0.36687368 -0.06129822 -0.05083695
0003e0 0d c2 d4 3e 42 67 86 3f f4 c4 c2 be 7f 21 4e 40
       0.415543 1.0500262 -0.38040888 3.2207944
0003f0 5a c8 69 3f a4 e5 b0 be 30 6c b8 3e f6 78 08 3f
       0.9132134 -0.34550202 0.3602004 0.5330957

sequential_40/dense_132/MatMul_bias f4 [12]
000000 fc d2 80 bd 5a 75 07 be 77 86 6c 3e 36 9f 39 3e
       -0.06290242 -0.1322836 0.2309817 0.1812714
000010 94 65 ed bd c1 86 39 be 44 d3 bb bc d3 e6 69 3e
       -0.1159164 -0.18117811 -0.022927888 0.22841959
000020 dc e5 e8 3e 9b a3 19 be 8a 8c 14 3c 46 63 76 bc
       0.4548787 -0.15003817 0.00906671 -0.015038317

sequential_40/dense_133/MatMul/ReadVariableOp/transpose f4 [8, 12]
000000 90 89 85 3d 98 07 d8 be cd b3 0b bf 80 62 ab be
       0.065203786 -0.42193294 -0.5457123 -0.33473587
000010 30 c6 00 3e 9a 4c f9 be 86 09 be 3d bf 1f fd be
       0.12575603 -0.48691255 0.0927916 -0.49438283
000020 1c c8 bb 3d 13 dd dd be c2 ea 32 bd 38 15 e3 3e
       0.09169027 -0.4333273 -0.043680914 0.44352126
000030 9c 01 78 3e 2e 91 20 be 1e cd d3 be 38 38 ea be
       0.24219364 -0.15680382 -0.4136743 -0.45746017
000040 3a f1 07 bf f6 5f c7 be 62 e3 c7 3e fe ea 84 3e
       -0.5310246 -0.389404 0.39040667 0.25960535
000050 ff ca 91 be 19 8c bf 3e ef bc a4 be 7f 7b 37 3b
       -0.28475186 0.37411574 -0.32175395 0.0027997193
000060 45 3e e0 be e0 15 68 bf c4 22 de 3e 56 0e 46 3f
       -0.43797508 -0.9065838 0.433859 0.77365625
000070 d3 bb 62 bf 3b 79 1a bf aa 67 b9 3e 76 8c c7 3e
       -0.88567847 -0.60341233 0.36211902 0.3897435
000080 42 59 12 3f c6 e0 3a bf 7c d0 3c 40 6c a0 13 be
       0.57167447 -0.7299923 2.9502249 -0.14416665
000090 a3 4d c2 3e e6 1f ce 3c 4f 0b c6 bd b5 c6 36 bf
       0.37949857 0.025161695 -0.09670126 -0.7139695
0000a0 95 46 bc 3f 99 59 e1 3e 1e f9 12 be ce 1a 5f be
       1.470904 0.4401367 -0.14352843 -0.21787569
0000b0 0d 2a 2d 3e f6 f4 50 3f 29 34 eb bf da 0f f4 3e
       0.16910572 0.8162378 -1.8375293 0.47668344
0000c0 be a9 54 be 6a 7e 53 be f0 84 73 3d b8 ae c2 3d
       -0.20767877 -0.20653692 0.05945295 0.09505981
0000d0 8c 84 e7 3e 64 63 8b be 58 c1 09 3f 08 56 8a be
       0.45218313 -0.27224267 0.53810644 -0.27018762
0000e0 04 9f a9 be d6 a7 1c be 70 fb 78 be c0 aa 3e 3e
       -0.33129132 -0.152984 -0.24314666 0.18619823
0000f0 74 7b 32 3f e2 5c e4 3e 8d 50 b3 be 08 6f 5d bf
       0.69719625 0.44602114 -0.35022393 -0.86497545
000100 60 fa 86 3f 40 43 5f 3f 6c a6 5a bd 17 a4 b3 bd
       1.0545158 0.8721199 -0.05338137 -0.08771532
000110 55 00 5e 3e 28 e3 97 3e 0e 7c c0 bf e0 93 22 3f
       0.21679814 0.29665494 -1.5037858 0.6350689
000120 f8 51 da 3d 20 9a 91 bc dc 85 5d 3e c4 13 07 3f
       0.106601655 -0.017773688 0.21633095 0.52764535
000130 6c e2 30 3e 14 e9 ef 3e 00 e0 24 3c 46 86 bb be
       0.17273873 0.46857512 0.010063171 -0.3662588
000140 e1 cb a7 be 00 3f ba bc 26 02 a0 3e d2 ae 0f be
       -0.32772735 -0.022735119 0.3125164 -0.14031532
000150 9b 69 4e bf ba 2a 56 bf 30 c6 03 3f c2 86 5b 3f
       -0.8062989 -0.83658946 0.51474285 0.857525
000160 58 b2 2c bf 74 7c d5 3d f0 79 e2 bd da f1 19 3f
       -0.6745963 0.10424128 -0.11058414 0.6013466
000170 9a a0 30 3f ef c8 30 bd c5 84 28 40 68 51 01 3f
       0.6899506 -0.043160375 2.6331036 0.5051484

sequential_40/dense_133/MatMul_bias f4 [8]
000000 03 7e fa bc 0a d2 65 bb 50 d3 5f 3e 53 db c3 bd
       -0.030577665 -0.003506782 0.21857953 -0.09563317
000010 00 00 00 00 05 15 0e be 00 00 00 00 c5 a2 84 3e
       0.0 -0.13875206 0.0 0.25905433

sequential_40/dense_134/MatMul/ReadVariableOp/transpose f4 [4, 8]
000000 70 1d d1 3e 01 37 ff bd 6f 07 1d 3f 8e 00 5f bf
       0.40842772 -0.12461663 0.6133947 -0.8711022
000010 be 99 d4 3e f9 96 62 bf d9 c5 b7 be 97 72 16 3f
       0.41523546 -0.88511616 -0.35893133 0.587686
000020 20 f9 5a 3e 1b 50 0a 3f 55 e7 df 3e 6b f8 89 bd
       0.21384096 0.5402848 0.4373118 -0.06736835
000030 84 40 fa be ce be 23 bf fc ba 01 bf 72 59 c6 be
       -0.48877347 -0.6396302 -0.5067594 -0.38740116
000040 da 7e 8c 3e 06 32 37 3e 14 59 d7 bd 6a b7 c6 bd
       0.2744053 0.17890176 -0.10515037 -0.09702952
000050 60 32 7d 3d 6d 50 24 bf 72 f3 0d bf ec a5 b8 3d
       0.06181562 -0.6418522 -0.55449593 0.09016022
000060 9a 50 e2 3d 1b cd 2a bf f8 c3 26 be bc 68 f7 3e
       0.1105053 -0.66719216 -0.16285694 0.48322093
000070 35 47 91 be 75 45 1d 3f 14 bc 1d be 97 97 1f 3c
       -0.2837464 0.6143411 -0.15403777 0.009740732

sequential_40/dense_134/MatMul_bias f4 [4]
000000 ea 1b 7e 3e 99 6f 9d bd a1 d7 a6 bd 13 bd 81 3e
       0.24815336 -0.07687301 -0.08146597 0.25339565

sequential_40/dense_135/MatMul/ReadVariableOp/transpose f4 [1, 4]
000000 07 aa a4 bf 63 31 af 3e 4a c2 0f 3e d1 e2 61 3f
       -1.2864388 0.34217367 0.14038959 0.8823672
