MediAI/Finalized models/tf_lite_breast_cancer_model.tflite (tflite, 4688 bytes, 9 tensors)

sequential_1/dense_1/MatMul/ReadVariableOp/transpose f4 [24, 5]
000000 fa 3c 84 be 6f 82 6a 3d a1 48 8f 3e 90 84 c8 be
       -0.2582777 0.057253297 0.279851 -0.39163637
000010 87 17 d0 3e 16 06 55 bd 58 99 d2 bc 7a 67 08 bf
       0.4064295 -0.052007757 -0.025707886 -0.5328289
000020 25 00 75 bd 02 5e 8c 3e 84 7a 02 3e 4a 0f ed be
       -0.05981459 0.27415472 0.12742049 -0.46300727
000030 fa 2d 29 bd f0 08 1a 3e c7 7f 1b be 67 68 55 be
       -0.041303612 0.15042472 -0.15185462 -0.20840608
000040 bd b2 56 be 6b 38 42 be 3b 6d 70 be b5 37 85 3e
       -0.2096662 -0.18966834 -0.23479168 0.26019064
000050 a0 6d 10 bc d7 2b 72 be 66 81 50 be 48 f7 a9 3d
       -0.008815199 -0.23649536 -0.20361862 0.08299118
000060 7c 91 9a bd 21 be 49 3e 22 2a a1 3e ee fd 91 bd
       -0.0754728 0.19701435 0.31477457 -0.07128511
000070 b2 c5 b5 bc 46 5e 53 3e aa ad d9 3e c6 bc 1f bf
       -0.022188995 0.20641431 0.42515308 -0.6239742
000080 aa 1d bd be 62 01 f9 3d c6 69 47 3e f5 24 48 3e
       -0.36936694 0.12158467 0.19473943 0.19545348
000090 e0 53 c3 bd bb 89 ab 3e bd e3 5b be 47 08 9a be
       -0.09537482 0.33503518 -0.21473594 -0.3008444
0000a0 00 1d 76 bb 38 33 c3 be d2 b8 0d be 94 fe 49 3e
       -0.0037553906 -0.38125014 -0.13840035 0.1972602
0000b0 c4 ba 4e be b8 87 89 3d cc 82 60 be 94 9e 7a be
       -0.20188433 0.067153394 -0.21924895 -0.24474555
0000c0 33 21 d6 be 70 7a 5e be e0 b6 34 3e 15 d6 5d 3d
       -0.41822204 -0.21726394 0.17647886 0.054159243
0000d0 57 97 2d be 90 07 ae be b4 bf 88 3e fc 8b 67 be
       -0.16952263 -0.33990145 0.26708758 -0.22611994
0000e0 9d 24 fa 3d 41 03 6d 3e 64 54 ce 3e e1 db d5 3e
       0.12214015 0.23145773 0.4029876 0.41769317
0000f0 9a c4 34 be 01 dd 65 be 64 09 37 3e 20 9a 16 3e
       -0.17653123 -0.22447588 0.17874676 0.14707232
000100 6e 19 b8 be 40 c8 9b be db 1a cb 3c 28 03 73 3e
       -0.359569 -0.30426216 0.02479308 0.23731673
000110 01 c5 13 3f 4f ac 03 3f bb 87 97 3d b2 7a 99 be
       0.5772248 0.514348 0.073989354 -0.29976422
000120 a4 9f 37 3e b1 12 f9 3d 4d 57 a0 be da f2 80 be
       0.17931992 0.12161768 -0.31316605 -0.2518528
000130 d5 f3 b4 be 10 fb ff 3c d8 16 12 bd 18 93 bb be
       -0.3534228 0.031247646 -0.035666317 -0.3663566
000140 f2 1c 1a 3d 3c bf a5 3e 74 f1 d8 be 1d ed 1c bf
       0.03762526 0.32372463 -0.42371714 -0.61299306
000150 2a 5c a5 3e 23 8d 67 3e 6c 2b 2b be b2 ec 97 be
       0.32296878 0.22612433 -0.16715783 -0.29672772
000160 2c cd d9 be f0 2b de 3d c2 26 aa 3e 13 41 b4 be
       -0.42539346 0.10848224 0.33232695 -0.35205898
000170 60 40 e2 be e7 34 da be 73 96 7c be df 73 50 3e
       -0.4418974 -0.42618486 -0.24666767 0.20356701
000180 92 d2 9a 3e 4f 08 95 3d ad c2 93 be b6 96 bf 3e
       0.30238777 0.07276975 -0.28859463 0.3741967
000190 5b 54 62 3e 79 47 2f bf 88 a2 7b 3e d5 1a 99 be
       0.22102492 -0.68468434 0.2457372 -0.29903284
0001a0 62 b4 7b 3e 86 78 e8 be 8b 52 b7 be 3c 2d 7c be
       0.2458053 -0.45404452 -0.35805163 -0.2462663
0001b0 78 54 2a bd c8 b7 50 be 26 ad 83 3e bd 4a cc bb
       -0.041584462 -0.20382607 0.2571804 -0.0062344954
0001c0 98 4c 26 bd 29 44 22 3f 19 01 05 3f fb 33 b4 3e
       -0.04060039 0.63385254 0.519548 0.35195908
0001d0 30 f4 ec be c0 a8 70 3e 20 11 f9 bc cc 37 b8 3e
       -0.4628005 0.23501873 -0.030403674 0.3598007

sequential_1/dense_1/MatMul_bias f4 [24]
000000 f4 14 b1 bd 96 88 5d 3e 67 da b5 bc 8b 87 15 3e
       -0.086465746 0.21634135 -0.022198869 0.14602487
000010 00 00 00 00 6e f4 0f be f4 ee 13 3e 1b 3a 25 3e
       0.0 -0.14058086 0.14446622 0.16135447
000020 00 00 00 00 00 00 00 00 15 62 ae 3d 8d 44 ba bd
       0.0 0.0 0.085148014 -0.09095106
000030 00 00 00 00 33 d3 36 be 07 22 88 bd 00 00 00 00
       0.0 -0.17854004 -0.06647115 0.0
000040 70 40 37 3e 21 0a 76 bd 00 00 00 00 45 7c 19 be
       0.17895675 -0.060068253 0.0 -0.14988811
000050 6e 17 cf 3c 00 00 00 00 2d 6f 54 be 43 10 04 3d
       0.025279727 0.0 -0.20745535 0.03224207

sequential_1/dense_2/MatMul/ReadVariableOp/transpose f4 [12, 24]
000000 2f 6d dd be 44 5f a9 3e dd 92 00 be 66 24 5e 3e
       -0.43247363 0.33080494 -0.12556024 0.21693572
000010 94 f8 32 3e 99 c1 07 bf 2a a9 d6 3e 88 b9 ae 3e
       0.17477638 -0.5302978 0.41925937 0.34125924
000020 fd 9b c9 be 91 eb 62 be e3 d7 1a 3e 84 8b 25 be
       -0.39376822 -0.22160174 0.15121417 -0.16166502
000030 50 57 8d 3e a8 dd 28 bf 70 66 ba be d8 58 9c be
       0.27605677 -0.6596322 -0.3640628 -0.30536532
000040 4d 29 f9 3e b3 4f 85 be ec 78 10 3e 40 4d b8 be
       0.48664322 -0.26037368 0.14108628 -0.35996437
000050 73 c1 d6 3e 82 e6 5b be d4 ae e0 be 9b f1 8f 3d
       0.41944465 -0.2147465 -0.43883383 0.070285045
000060 9b 5d 87 be 53 ac cb 3e 68 f8 47 bd e5 8d 0f 3f
       -0.26438603 0.3977991 -0.048820883 0.5607589
000070 4c 55 b9 bd 71 42 66 3d 2e fa 4d 3e 33 c6 d9 bd
       -0.09049472 0.056215707 0.20114967 -0.106335066
000080 c4 f5 bf be 27 9a 44 be 0d 02 2d be ec c3 46 3e
       -0.37492192 -0.1919943 -0.16895314 0.19410676
000090 b8 e4 d7 3d 92 da a2 be 53 92 8f be c0 5a be 3c
       0.105416715 -0.3180738 -0.28041324 0.023236632
0000a0 fe cb 69 3c d4 04 10 3f 58 53 82 3e 6a 1d 81 3e
       0.014269827 0.5625737 0.2545421 0.25217754
0000b0 5f 3a c3 bd d8 c3 46 3e e1 21 09 bf be 38 f3 be
       -0.09532618 0.19410646 -0.5356732 -0.47504228
0000c0 fa e8 98 be ee d1 f0 bd cc 2e 2d 3e 69 99 87 3e
       -0.29865247 -0.11758791 0.16912383 0.2648423
0000d0 58 db 47 3e 8d fc 2f 3e fb 8b 0f be 71 ae 26 be
       0.19517267 0.17186184 -0.14018242 -0.16277482
0000e0 5a 46 c6 3e e0 a6 71 bd e6 6c 8c be cd 98 5b be
       0.3872555 -0.058997035 -0.27426833 -0.21445008
0000f0 d0 ff e7 3d 63 03 17 3e 80 c0 83 be 14 f9 a7 3e
       0.11328089 0.14747386 -0.25732803 0.3280722
000100 83 70 a3 be bb 8f 84 be 52 d5 b3 be 68 85 51 be
       -0.31921777 -0.25890908 -0.35123688 -0.20461047
000110 55 b6 b5 be 70 47 60 3d 47 48 a5 3e 9d bb 96 3e
       -0.3549067 0.054755628 0.32281706 0.29440013
000120 2f 31 b1 be 8f be 4c 3e 75 15 5a 3e d9 6e 15 be
       -0.34607837 0.19994567 0.21297248 -0.14593066
000130 c1 be c0 be 31 fd 36 be 5b af aa 3e 2b 55 d8 bd
       -0.37645534 -0.17870022 0.3333691 -0.105631195
000140 62 70 a1 3e 90 b8 2c 3d b7 b9 7f 3e 54 75 86 be
       0.31531054 0.0421682 0.24973188 -0.2626139
000150 a2 4f 80 be 27 bf 41 be b8 f7 85 3e 04 1c 49 be
       -0.25060755 -0.18920575 0.26165557 -0.19639593
000160 3f 38 51 3d c1 d8 7d be 68 a1 2e 3e b8 24 09 bf
       0.05107903 -0.24789716 0.17053759 -0.53571653
000170 12 30 a9 3e e0 2d 0d bc 99 d6 c9 bd 1c a5 2f 3e
       0.33044487 -0.0086168945 -0.098553844 0.17152828
000180 40 db 2c bd 79 5d af be 20 10 2d 3e fe 6e 8a 3e
       -0.04220128 -0.34251 0.16900682 0.27037805
000190 e6 f0 90 be 34 28 ac be 58 bc da 3d c0 c5 4c bd
       -0.2830879 -0.33624423 0.10680455 -0.049993277
0001a0 f2 fa 76 be 2a 5d a2 3e 9c bd 9f be 7f c8 af be
       -0.24119166 0.31711704 -0.31199348 -0.34332654
0001b0 f8 ff 4e bd f0 a6 7a bd 74 1b 0a be cc 0a 7d 3e
       -0.05053708 -0.06119436 -0.13487035 0.2471115
0001c0 a0 20 6b 3d c0 54 12 bd ca 79 87 be 70 d2 c0 3d
       0.05740416 -0.035725355 -0.26460105 0.09415138
0001d0 2c e1 30 3e c0 c5 26 3c 20 dc 73 3e e0 60 79 be
       0.17273396 0.010178983 0.2381444 -0.24353361
0001e0 fa 26 d1 be bf ab 45 3e b4 28 87 be 9a fa df bc
       -0.4085005 0.19303797 -0.26398242 -0.027341176
0001f0 5c 9e 83 3d 26 17 8d 3d 53 58 99 3e b7 da bc 3d
       0.06426689 0.06889181 0.299502 0.09221404
000200 b4 86 9e 3e e0 ba 12 3e 56 f4 b3 3d 71 17 bc bd
       0.30962145 0.143291 0.08786838 -0.091841586
000210 58 67 e7 3d 8b bd cd be 41 fb 8f be e5 1e b4 be
       0.11299008 -0.40183672 -0.2812138 -0.3517982
000220 37 2a 3f be c8 bf a2 3d 92 65 b3 3e bf ba 42 3d
       -0.18668447 0.079467356 0.3503843 0.047541376
000230 67 70 84 be c8 18 44 3e 2f f1 03 be f6 b2 b2 be
       -0.25867006 0.19150078 -0.12884973 -0.3490216
000240 e1 b8 7a be 40 0c 05 3f 28 00 82 be e6 c6 e8 3e
       -0.24484588 0.51971817 -0.25390744 0.45464247
000250 34 4a 17 3e f6 aa f7 be ce a5 9b 3d 36 96 b2 3e
       0.147744 -0.4837262 0.07599984 0.34880227
000260 68 a7 8c 3d a0 aa 03 bd 91 c2 fd bd 9e b1 04 bf
       0.06867868 -0.032145143 -0.12390626 -0.5183352
000270 c4 42 a5 3d 48 d3 39 3e dc 24 c8 be 40 76 ae 3b
       0.08069375 0.18147004 -0.3909062 0.005324155
000280 25 35 1e be b0 1d 29 be 1c 5f 81 3e b6 7e 06 be
       -0.1544996 -0.16515231 0.25267875 -0.13134274
000290 99 54 13 be 78 b4 b0 3d 13 51 07 bd db 63 89 3e
       -0.1438774 0.08628172 -0.033036303 0.26833996
0002a0 50 02 82 bd 6d d1 98 3e 50 84 17 be 20 73 65 3e
       -0.06348097 0.2984728 -0.14796567 0.22407198
0002b0 e0 02 88 bc 69 a7 ea bc d1 dd 8d 3d 9f 28 7e be
       -0.016602933 -0.02864428 0.06927074 -0.24820183
0002c0 f1 f7 4f be 86 a2 c7 3e 22 77 1c 3e 11 1d 26 be
       -0.20309426 0.38991183 0.1527982 -0.16222025
0002d0 fd b9 b4 be 27 88 86 3e 00 33 fb 3a 14 2b 2a be
       -0.35298148 0.2627575 0.001916498 -0.16617996
0002e0 fd bd d7 3d 61 08 79 be 32 03 b0 be 2a 6e ea be
       0.10534284 -0.24319603 -0.34377438 -0.45787174
0002f0 0d 89 af be f4 2a 86 3e 11 00 a1 be c3 7c 52 be
       -0.3428425 0.26204646 -0.31445363 -0.20555405
000300 56 b0 9c be ca 02 14 3f 70 19 8e 3e 02 23 01 3e
       -0.30603284 0.57816756 0.27753782 0.1261101
000310 2c cc 66 3e 45 3a fe be 69 f1 4d 3f 83 c8 a6 3e
       0.22538823 -0.4965383 0.8044649 0.32574853
000320 0e 58 92 3e a0 4b 00 be 36 e2 56 be 1d a9 1b bd
       0.28582805 -0.12528849 -0.2098473 -0.038003076
000330 db 73 ad be 9b cd d8 be c3 e4 a9 3c b0 95 8e 3d
       -0.33877453 -0.42344365 0.020738965 0.069621444
000340 f7 b7 3d 3e 8f 2f e8 3d 48 1f 12 3d 96 19 d1 bd
       0.18527208 0.11337196 0.035674363 -0.10209958
000350 20 ee cb 3d 66 06 9e 3e 20 63 cf be e5 83 70 be
       0.09957528 0.30864257 -0.40505314 -0.23487814
000360 40 cb b4 3e 18 b0 fd bd 00 9e 63 bd 48 ae 3d bd
       0.35311317 -0.12387103 -0.055570602 -0.046308786
000370 24 02 a4 3e c0 ff 32 3e 14 db b8 bd 8a cb 5b be
       0.32032883 0.17480373 -0.09026161 -0.21464363
000380 9c 14 70 be d8 11 26 bd f0 2c 87 bc 0a 63 8e be
       -0.23445362 -0.04054436 -0.01650092 -0.27809936
000390 4c a7 66 3e 1e a3 82 be 3e 21 a0 3e 4a 48 ba 3e
       0.22524756 -0.25515074 0.31275362 0.36383277
0003a0 5c 5c af be 8c 99 94 3d 0e ee 85 3e de 0b 11 be
       -0.34250152 0.07255849 0.26158184 -0.14164683
0003b0 c3 cc 6d be f8 cf 4b bd 60 ea 3a 3d ca 35 c4 be
       -0.23222642 -0.04975888 0.045633674 -0.38322288
0003c0 69 a2 5c be 78 28 79 3d 05 64 92 be 5c 25 fc bd
       -0.2154633 0.06082961 -0.28591934 -0.12311813
0003d0 68 ea b9 3e df 16 cf bc 46 c8 3a 3e 71 5e 63 3e
       0.3631165 -0.02527946 0.18240461 0.22203995
0003e0 24 3c c8 be 20 4f 69 3c 7f a3 c9 3e 2a 27 d8 be
       -0.39108384 0.014240056 0.3938255 -0.4221738
0003f0 90 a3 03 bd 9e 3c db 3d ea 16 66 bd fe 30 a2 3e
       -0.032138407 0.10704921 -0.056174196 0.31678003

sequential_1/dense_2/MatMul_bias f4 [12]
000000 50 68 36 3e 51 70 4c 3e 21 e7 a2 3d 0b ce 24 3d
       0.1781323 0.1996472 0.079542406 0.04023556
000010 00 00 00 00 a0 bb db bc 57 f7 7a bc 40 2f 97 bd
       0.0 -0.026822865 -0.0153177595 -0.07382059
000020 86 0f 46 3e 00 00 00 00 3f 36 d7 3d ba dd f2 3d
       0.19341859 0.0 0.105083935 0.11858697

sequential_1/dense_3/MatMul/ReadVariableOp/transpose f4 [8, 12]
000000 e6 4f a1 3e 6a 88 f3 3e 9a 82 2f 3e 6e 95 bc 3e
       0.3150627 0.47565013 0.17139664 0.36832756
000010 20 7a ab 3d 26 ac f7 bc f4 7d 8a 3d 72 e7 d7 be
       0.08372903 -0.030233454 0.06762305 -0.42168766
000020 fa 62 5c 3f 5a a0 86 3e f0 b0 fa 3e 23 64 b9 3e
       0.86088526 0.26294214 0.48963118 0.3620921
000030 89 dc 01 3e 26 14 3e be fe c3 6f 3e b7 4f 0c bf
       0.12681784 -0.18562374 0.23414609 -0.54809135
000040 32 0f 0b be 1b 98 1b bd 3d fd c3 be c5 04 cc 3e
       -0.13580015 -0.037986856 -0.38279143 0.3984739
000050 1d fe 82 3e f0 9e 45 3d d0 5d 13 bc a7 3c ca 3d
       0.25584498 0.048247278 -0.008994535 0.0987485
000060 33 7f c5 be 67 5a 8b 3e 6d 2a 6b 3e 99 6c 85 bd
       -0.38573608 0.2721741 0.22965403 -0.06514854
000070 a8 a5 94 3e d6 90 d7 3e 13 79 ad be 51 01 09 3b
       0.29032636 0.4210269 -0.33881435 0.0020905326
000080 52 61 03 3e 10 85 8b 3d be aa 89 be 7d af 1f bf
       0.12830094 0.06812489 -0.26888078 -0.6237715
000090 8a cd 6b 3f 30 0b 21 3f b7 99 4c be 6f 26 91 3e
       0.921105 0.62907696 -0.19980513 0.28349635
0000a0 38 77 88 3e 00 1b f3 be 12 6c 9d 3e f4 14 1d be
       0.26653457 -0.47481537 0.30746514 -0.15340024
0000b0 ef 90 58 3f 1a f0 d9 3e 76 5b 27 3f 3a f9 1d 3f
       0.8459615 0.42565995 0.65373933 0.61708415
0000c0 e9 83 b6 3e 55 7b 3a 3f 73 a5 24 bd 97 a9 ec 3e
       0.35647514 0.7284444 -0.040196847 0.46223137
0000d0 3c 82 65 3e 87 d4 a7 bd 4b ab 25 3f 76 89 d0 3d
       0.22412962 -0.08194833 0.647145 0.101824686
0000e0 e8 3f 28 3f 16 2b 14 be 21 3f e9 bc 80 ae 11 3f
       0.65722513 -0.14469561 -0.028472485 0.5690689
0000f0 f6 18 5c 3f 7c ba 08 3f 83 7d bd 3e 5b 9b 80 3e
       0.8597559 0.5340955 0.3700982 0.25118527
000100 46 8d db 3e c2 52 c4 be 1a fe 1b 3f 48 c9 61 3e
       0.4288122 -0.3834439 0.60934603 0.22049439
000110 e3 ae d9 3e 9c 19 30 be 1c 76 55 3e fa ea 9a 3e
       0.4251624 -0.17197269 0.20845836 0.30257398
000120 0f ea 89 3f 6e dc a5 3d cc 2b c9 be 2b 17 09 3f
       1.0774554 0.08098684 -0.39291227 0.53550977
000130 5d cb 9f be a6 6f fa be 10 98 3c be 89 90 a1 3e
       -0.3120984 -0.48913306 -0.18417382 0.31555584
000140 f0 68 32 3f 18 ad a8 3e 91 10 3b 3f 38 26 95 3d
       0.6969137 0.3294456 0.73072153 0.0728268
000150 4f 7f 65 3f 21 8f 03 3f 9e d7 51 bd 90 b9 33 3d
       0.8964738 0.5139027 -0.05123102 0.043878138
000160 1a f2 e4 3e 98 bf 07 3f dd 6e 43 3f bc ec d3 be
       0.4471596 0.53026724 0.7634104 -0.41391551
000170 1c 48 62 3f 80 a3 98 3d eb e0 9b 3e 2a 93 30 3f
       0.8839128 0.0745306 0.30445036 0.68974555

sequential_1/dense_3/MatMul_bias f4 [8]
000000 89 0e 0c bd de c1 ab bd 19 6d ae 3d 80 dc 0b bd
       -0.03419355 -0.083865866 0.085169025 -0.034145832
000010 43 9f 9a bc 50 a3 6a bc 8d 5a 0c bd f8 4c 9a bc
       -0.01887477 -0.014321163 -0.034266043 -0.01883553

sequential_1/dense_4/MatMul/ReadVariableOp/transpose f4 [4, 8]
000000 42 9b 0a 3f dd bf 88 bc 20 de 1d bf 86 07 82 3f
       0.54143155 -0.01669305 -0.6166706 1.0158546
000010 ab c7 63 3e df ad 63 3f 49 e8 5d 3f 29 45 96 3e
       0.22244136 0.8893718 0.86682564 0.2934964
000020 46 f6 fa be b1 8d 04 bf 76 1c 18 3f 96 13 c3 3d
       -0.49016017 -0.51778704 0.5941843 0.0952522
000030 77 f5 2e bf b8 9d 23 3f bf 89 04 bf 86 6f e6 3e
       -0.683433 0.63912535 -0.51772684 0.4500696
000040 16 ab 7e 3f ef 0d ea be 4d 95 50 3d 00 71 6b 3f
       0.99479806 -0.45713755 0.050923634 0.919693
000050 64 0c 9e 3e a5 ec fd 3a c8 ac f7 bd b6 2a 22 3f
       0.30868828 0.0019372894 -0.12093502 0.6334642
000060 6b 07 fc bd b4 b0 82 bd 7b e0 4b bf 23 ab 6d 3f
       -0.12306102 -0.0638136 -0.79639405 0.9283926
000070 1a a0 11 3f d6 e8 41 3f 94 80 4b 3f 1a 32 f8 3e
       0.5688492 0.75745904 0.7949307 0.48475724

sequential_1/dense_4/MatMul_bias f4 [4]
000000 79 2e f0 bc 8d 82 2a 3e e1 8c 1a bd 72 3e fd bc
       -0.029319035 0.16651364 -0.03773201 -0.030913565

sequential_1/dense_5/MatMul/ReadVariableOp/transpose f4 [1, 4]
000000 80 00 9d 3f 67 ee 3f bf 71 42 a1 3f a1 e0 ba 3f
       1.2265778 -0.7497315 1.2598401 1.4599801
