Exports/tf_lite_model.tflite (tflite, 2496 bytes, 5 tensors)

sequential_3/dense_7/MatMul/ReadVariableOp/transpose f4 [12, 8]
00000000: 4c91 22be 5d64 843d 544d ef3e cbc7 12be
00000010: a601 7cbd f7ae b93e 932e d03e 00ad 013f
00000020: 3d45 0a3f c764 b53e f85e 6e3d 4a99 e73e
00000030: d827 f7bc 91d3 65be db4a f03e 8cf5 87be
00000040: a4ef 09bf b593 133e e4fe 933e 0656 a03e
00000050: cac4 863e 9c6b c83e 2db2 fcbe 14a5 a03e
00000060: ff2f 1cbe 4844 983e a3f1 0f3e 4d6f 59bd
00000070: 03a9 bdbd 7831 48be 56db d5be 7c78 a6bc
00000080: 6754 bcbe 8d3e 913d 21e2 f4bd c157 573e
00000090: f121 033d ed65 753c 51f6 ac3d b57a f03e
000000a0: c4f7 f4bd 58e0 e23c 01af 09bd 1190 a03e
000000b0: ae9f 533e 342e d83e a051 1f3f ea36 15be
000000c0: b43b bdbd 06d6 44bd 9fd3 863d 597e 01be
000000d0: d8dc 493e 5027 8ebe 7fd0 84be adc4 29bf
000000e0: e0f8 883c f611 0cbf 20e7 0fbd 4f9a cdbe
000000f0: f215 4dbe 9e7b 6fbe 9054 173e 1c21 d7be
00000100: 789b cbbd 6151 49be 1782 043f f323 d33e
00000110: 0f11 a33c 5bdb 1f3f 9ec4 0fbf 1327 2dbf
00000120: 9479 c83e 1853 a73e 4247 8ebe 57bf df3e
00000130: 62cf 8dbd c12a dfbd b05e cd3e 0ee3 6ebe
00000140: 09d8 103f b017 ddbe dce4 a63e c385 5f3e
00000150: 7c0d bb3e 10df b0be 87b0 273f 39e8 24be
00000160: 7c8d 52be 58e7 d1bd a243 d7be dcda e6bd
00000170: 00ef 44bb 6dd8 e6be ee4c d3be 5668 ddbe
-0.15875739 0.06464455 0.46738684 -0.14334027 -0.06152501 0.362663 0.40660533 0.506546
0.540119 0.3542845 0.058196038 0.45234138 -0.030170366 -0.22443987 0.4693211 -0.26554525
-0.5388129 0.14411815 0.28905404 0.3131563 0.26322013 0.391446 -0.49354687 0.31375945
-0.15252684 0.29739594 0.14057021 -0.05308466 -0.09260752 -0.19550121 -0.41768903 -0.020321123
-0.36783144 0.07092009 -0.11957193 0.21029569 0.03201479 0.014977914 0.084454186 0.46968618
-0.1196132 0.027694866 -0.033614162 0.31359914 0.20666382 0.4222275 0.62233925 -0.1457173
-0.09239903 -0.04805567 0.06583332 -0.12645854 0.19713151 -0.27764368 -0.2594032 -0.6631573
0.016720235 -0.54714906 -0.035132527 -0.4015679 -0.20027903 -0.23387 0.14778352 -0.42017448
-0.09941763 -0.1965995 0.51761 0.41238365 0.019905595 0.62444085 -0.5615939 -0.6763775
0.39155257 0.32680583 -0.2778874 0.43700668 -0.06924321 -0.108968265 0.40111303 -0.23328802
0.56579643 -0.43182135 0.3259648 0.2182837 0.36533725 -0.34545183 0.65503734 -0.16104211
-0.20561785 -0.102492034 -0.42043787 -0.11272213 -0.0030049682 -0.45086995 -0.4126963 -0.43243665

sequential_3/dense_7/MatMul_bias f4 [12]
00000000: 16c4 9fbf 1099 98bf a1b9 963f 6f8c 133f
00000010: d5ee 8d3f 6fd9 9fbf e1a3 093f 0000 0000
00000020: 95ab a43f 5efd 88bf de3a 3dbf 0000 0000
-1.2481716 -1.1921711 1.17754 0.5763616 1.1088511 -1.248823 0.53765684 0.0
1.2864863 -1.0702322 -0.7391795 0.0

sequential_3/dense_8/MatMul/ReadVariableOp/transpose f4 [8, 12]
00000000: 2bf7 253e 9d8e abbe f9b4 d33e cbb4 a7bc
00000010: 94f2 a13e c5f0 0abf 78b1 e23e c8f5 893e
00000020: 028b dc3e 8ed2 6c3e aeee 31be 085f c3be
00000030: 5c13 a9bd 9422 85bd d6ae abbe 0486 c83e
00000040: d5f7 88be 905d aa3d 532f b9be 0a8f e13e
00000050: 540a 46be 3116 81be b291 d23e 0437 083f
00000060: c0e5 483e 5934 25bd dfaf 53bd f025 c53e
00000070: 730a b33e 1dee c4be 8ddf 913e f8cc dcbe
00000080: 2ade 9b3e 7cb3 83be e28e b13e a829 c5bd
00000090: a2ec abbc 485e 91be e73a 9a3e 1774 da3e
000000a0: a573 a23c 5308 01be 240f 593e 10ca 423d
000000b0: 7872 19be 1c27 b7be 6078 88be 3b16 cebe
000000c0: 5f32 f33e 106a 04be 76af 7b3c 2292 033f
000000d0: 2423 143d 1220 513e bd5c bb3e e48e 5d3e
000000e0: be12 a63e 893d 6cbc 9a44 da3e 2e66 833e
000000f0: cbcd 273e b949 f3be bc3e ee3d c553 2cbf
00000100: 119b ecbe 7534 8c3e 945b 14bf 0891 78bd
00000110: 16e3 153e 71ec fa3d 8822 68be 6887 cebe
00000120: 0176 cbbe bfd6 9bbc f2ab f13e 1833 ab3e
00000130: 1821 c5be 2c31 7cbe 5d28 6f3d b49c f73e
00000140: a44c 0d3e 16ea 37be 503c 5b3e 54b1 063f
00000150: c3ba c8bd b910 003f a5a5 f1ba f80b c9be
00000160: 2811 90be e152 8dbc ca25 8b3e 4010 f2bc
00000170: d78d de3c fd9c abbe baf3 c5be c876 eb3e
0.16207568 -0.33507243 0.4134901 -0.020471951 0.31630385 -0.54273635 0.44276023 0.2694533
0.43074805 0.23127195 -0.17376205 -0.3815844 -0.08255646 -0.06500736 -0.33531827 0.39164746
-0.2675158 0.08318627 -0.36168918 0.44054443 -0.19339877 -0.25212243 0.41126782 0.5320895
0.19618893 -0.040333126 -0.051681396 0.38505507 0.3496891 -0.38462916 0.28490868 -0.4312513
0.30442935 -0.25722873 0.34679323 -0.09627086 -0.020986859 -0.28392243 0.30123064 0.42666695
0.019830534 -0.12600832 0.21197182 0.047555983 -0.14985073 -0.35772026 -0.2665434 -0.40251336
0.47499368 -0.12931085 0.015361657 0.51394856 0.036166325 0.2042239 0.3659419 0.2163654
0.32436174 -0.014418968 0.42630464 0.25663894 0.16387098 -0.47517183 0.116330594 -0.6731532
-0.46212056 0.27383772 -0.5795224 -0.060685188 0.14637408 0.12252129 -0.22669423 -0.40337682
-0.39738467 -0.019023297 0.47201496 0.3343742 -0.3850181 -0.24628133 0.058388103 0.48361742
0.13798767 -0.1796039 0.21409726 0.5261433 -0.09801247 0.50025517 -0.0018436207 -0.39266944
-0.2813809 -0.017251434 0.27177268 -0.029548764 0.027167244 -0.3351821 -0.3866251 0.4598906

sequential_3/dense_8/MatMul_bias f4 [8]
00000000: 243c 9e3f 0000 0000 bafa a23f 892c b7bf
00000010: 2bdf a3bf a08a f5be b7d9 983f 3395 d1bb
1.2362103 0.0 1.2732766 -1.4310466 -1.280248 -0.47957325 1.1941441 -0.0063959598

sequential_3/dense_9/MatMul/ReadVariableOp/transpose f4 [1, 8]
00000000: 8ce7 85be a9ad 48bf 131c 43be 23b4 933c
00000010: 3729 a13e 2fe5 653e 0ae6 97be 9a82 3ebe
-0.2615322 -0.78389984 -0.19053678 0.018030232 0.31476757 0.22450708 -0.29667693 -0.18604508
